计算机视觉实践-练习2/Lenet5/model/lenet5.pth (torch, 251913 bytes, 10 tensors)

weight f4 [6, 1, 5, 5]
000000 d5 cb 71 be 33 e5 8a be 34 5a e9 be d4 37 89 be
       -0.23612912 -0.2712799 -0.45576632 -0.26800406
000010 56 02 97 be 19 74 f8 be ba 24 57 bf 5a 4c fa be
       -0.2949397 -0.48526075 -0.84040415 -0.48886377
000020 74 86 00 be 8c fb d8 3d a1 3a f4 3d 10 2c 09 be
       -0.1255129 0.10594854 0.11925245 -0.13395715
000030 e8 84 51 3e 49 3b 86 3e 84 88 cb bd d4 a1 c3 3e
       0.20460856 0.26217106 -0.09938148 0.38209403
000040 d9 6e ca 3e b4 f8 f1 3d b4 98 6e 3e ac 62 03 bb
       0.39537695 0.118150145 0.23300439 -0.0020047827
000050 d7 c3 9b 3e 4a 1b b5 3e 39 17 96 3e d4 00 83 3d
       0.3042285 0.35372382 0.29314592 0.06396642
000060 d1 85 34 3e bf dd 19 be f8 7b d2 3d 63 3a 86 3e
       0.17629172 -0.15025996 0.102775514 0.2621642
000070 8b ec 01 3f 0a bf 89 3e 97 0d ab be f1 bb ca bd
       0.5075156 0.26903564 -0.33408806 -0.09899128
000080 1a 92 03 be 67 43 d5 bd a3 6a f5 bc 3e 3c d1 be
       -0.12848702 -0.104132466 -0.029958075 -0.40866274
000090 43 de bd be 0b d6 dc be 45 67 81 bf 04 04 36 bf
       -0.37083635 -0.43132052 -1.010964 -0.7109988
0000a0 ca 1d ba 3d c4 2f 3f 3d 6c 4d be be 9b a9 f2 bd
       0.09087713 0.046676412 -0.37168443 -0.11848756
0000b0 2a 30 3b be c2 dc 60 3e c9 05 52 3e c6 d4 40 3e
       -0.18280092 0.21959212 0.2051002 0.18831167
0000c0 91 ae a1 3e 7a c6 98 3e 21 f6 ed 3d db 71 94 bd
       0.31578496 0.29838926 0.11619211 -0.07248279
0000d0 d1 7b 8c be 6a 74 ab be 3f a8 90 bc 63 3b fd bd
       -0.27438214 -0.33487254 -0.017658351 -0.12364843
0000e0 2b 96 6c bd d7 ad 45 be c6 d5 54 be bc 6a 63 3e
       -0.0577604 -0.19304596 -0.20784673 0.22208685
0000f0 02 58 8c 3e 7c a7 1c 3c cc 67 a0 3e e4 3e 1d bc
       0.27410895 0.009561416 0.3132919 -0.009597514
000100 0b 0c 05 3e 77 77 09 3e f1 2c ef 3e f0 46 cc 3e
       0.12992875 0.13424478 0.46713975 0.3989787
000110 e1 da f4 bd 89 89 9c bd 74 02 82 3e dc c6 5d 3e
       -0.1195581 -0.0764342 0.25392497 0.2165789
000120 ec 36 74 3e d3 80 47 be de a8 0a bf 43 ac ad 3e
       0.23849076 -0.19482736 -0.5416392 0.33920488
000130 e5 48 34 3e de f0 19 3e 08 45 be be 82 b7 08 bf
       0.17605932 0.1503329 -0.37162042 -0.5340501
000140 b2 15 28 3e e5 96 5b 3e 7a cc 81 bd ae 47 f5 be
       0.16414526 0.2144428 -0.06337829 -0.4790625
000150 4d 02 1f bf b8 32 67 3e 3a 64 d0 3d 94 18 f9 bd
       -0.62112886 0.22577941 0.10175367 -0.12162891
000160 a1 ab 57 bf 6f 19 ad be 5c 14 47 3e 2e 45 18 3c
       -0.8424626 -0.33808467 0.1944136 0.0092938375
000170 64 6a 4f be de 2d 19 bf 63 a3 24 be ef 64 48 3e
       -0.20255429 -0.5983561 -0.16077952 0.19569753
000180 4b 43 de 3d ae 71 a9 bc 04 e6 de be fa 9d 41 bd
       0.10852679 -0.02068409 -0.43534863 -0.0472698
000190 f2 ab c1 be 33 63 80 be e5 29 77 be 3e 64 c8 bc
       -0.37826496 -0.25075683 -0.24137075 -0.024461862
0001a0 90 4c 29 be 18 91 8e be 75 10 29 be c2 99 49 3e
       -0.16533113 -0.27845073 -0.16510184 0.1968756
0001b0 88 e1 9f bd 21 fd 76 be af 43 a4 be cd 3a 39 3e
       -0.078066885 -0.24119999 -0.32082888 0.18088837
0001c0 7c 60 b8 bb ee 72 fa bd c5 37 27 bc de c7 8b 3e
       -0.005626736 -0.12228952 -0.010206168 0.27300924
0001d0 ec 76 13 3f 67 34 8d 3e 51 10 82 3e ee 1c e6 3e
       0.57603335 0.27579042 0.25403073 0.44943947
0001e0 da 1a b6 3e f8 55 28 3f a2 42 99 3e 93 e5 b0 3e
       0.3556736 0.6575618 0.2993365 0.3455015
0001f0 f5 9f db 3e 78 24 52 be 36 66 cd bd 9a 42 83 be
       0.42895475 -0.20521724 -0.10029261 -0.2563675
000200 c9 43 83 be 7d 27 29 3c 0c c6 a2 3e 8f 49 aa 3c
       -0.25637653 0.010324356 0.31791723 0.020787029
000210 cf 6d 7c 3c 41 77 73 3e 92 a0 3f 3e bc 97 0a 3f
       0.01540704 0.2377596 0.18713596 0.5413778
000220 42 c7 a6 3d 6a 42 8c 3e 84 28 d7 3e a9 f4 54 3e
       0.08143474 0.2739442 0.42023098 0.20796455
000230 4d 4f a9 3e 53 26 37 3e bd cc 0c 3e f0 39 7a 3e
       0.33068314 0.17885713 0.13749976 0.24436164
000240 a6 33 3e 3e ee bb 58 3d aa 01 39 bd eb 65 9b bd
       0.1857439 0.0529136 -0.045167603 -0.07587799
000250 1a 0b 4e 3e a5 00 84 3e
       0.20121422 0.25781742

bias f4 [6]
000000 67 8d 3e be 2f 26 b6 bd ee 84 94 be ba 2e b1 3d
       -0.18608628 -0.08894002 -0.29007667 0.086514905
000010 e5 c6 37 bd dd 23 8b bd
       -0.044867415 -0.0679395

weight f4 [16, 6, 5, 5]
000000 28 ac 4c be 14 ad 3d 3e 47 b8 08 3e 60 a6 3d be
       -0.19987547 0.18523055 0.13351546 -0.18520498
000010 60 55 27 3e 12 39 83 bc d6 e3 af bd 2d 4d cf bd
       0.16341162 -0.016018424 -0.08588378 -0.10122142
000020 a9 91 60 3d 6d 09 1a be c2 7b 98 bc d7 fd 47 3e
       0.054826412 -0.15042658 -0.0186137 0.19530426
000030 b8 2b 06 3f f9 90 bb 3e 05 50 11 3e 24 d0 f7 3b
       0.5241046 0.36634043 0.14190681 0.007562654
000040 25 11 69 bd e3 b9 4f 3e 80 99 b4 3e cb e3 97 3e
       -0.056901116 0.20285754 0.3527336 0.2966598
000050 95 d0 6f bd 65 0e 7f be 8f 4d 31 be 2c d4 88 be
       -0.05854853 -0.24907835 -0.17314743 -0.26724374
000060 54 69 0b bd 7d 61 8e be ea 59 93 3c 10 41 ba 3e
       -0.034035996 -0.27808753 0.01798721 0.36377764
000070 18 45 59 3d 5e f8 0f be a1 ee 77 bb 95 f4 6d 3e
       0.05304441 -0.14059588 -0.0037831443 0.23237832
000080 de 4d bc 3e 14 12 4a 3e 78 6e 49 3e fb be 18 bc
       0.36778158 0.19733459 0.19671047 -0.009322877
000090 86 49 ee 3d 6c f4 48 3e 27 2d 9e 3e 46 94 b9 3e
       0.11635117 0.1962449 0.30893824 0.36245936
0000a0 bc 48 a6 3c 7c b4 b9 bd 5b 9f 4d be 1a 1f 7e bd
       0.020298354 -0.09067628 -0.2008032 -0.06204138
0000b0 19 79 59 3e 3c 3a 68 3e 8d 31 09 be 23 12 d5 bd
       0.21237601 0.22678465 -0.13397808 -0.1040385
0000c0 72 74 1d bd f5 9b 0a 3e a2 ed 06 bd 8a bb 65 3e
       -0.03844113 0.13536055 -0.032941468 0.22434822
0000d0 c7 c6 87 3c d7 1a c3 be bd 42 04 be 13 6f 99 3c
       0.016574277 -0.38106415 -0.12916084 0.018729722
0000e0 0a 26 39 3e 9f 5c 7a bd d3 57 0f be 40 15 e6 be
       0.18080917 -0.061123487 -0.13998346 -0.44938087
0000f0 dc 4f 5e 3d 6e d7 65 3e 6d 11 43 bb 59 bd 02 3e
       0.05427538 0.22445461 -0.0029765025 0.12767543
000100 c6 0a 86 bd 42 c6 13 3e cb f8 35 3e 2b 63 6d 3e
       -0.065450236 0.14431098 0.17770688 0.23182361
000110 d1 85 b3 3c 13 c1 24 3c ff 22 5a bc 63 d9 9b 3e
       0.021914395 0.010055798 -0.013314008 0.3043929
000120 3b 77 df 3c da c1 5c bc 85 f4 8f bd 37 7b c1 bd
       0.027278533 -0.013473952 -0.0702906 -0.094473295
000130 c8 c3 a3 3e 2c 01 85 3e e3 99 b5 3e a7 9f d0 3e
       0.31985307 0.25977457 0.3546897 0.40746805
000140 ee bf 74 be fb 59 97 3d ce de 90 3d dd 18 11 bd
       -0.2390134 0.07390209 0.070737466 -0.035424102
000150 24 8f 0e 3c dc cb a1 be 1a b9 5e bd 09 02 64 be
       0.00870112 -0.31600845 -0.054375745 -0.22266401
000160 c3 1f fa 3d c9 5f 91 3e 9f 0c fe be 5f 87 94 be
       0.12213089 0.2839339 -0.49619004 -0.2900953
000170 63 4e 9e be 88 4c ce bc 90 9f 9a 3e 80 30 de be
       -0.3091918 -0.025182977 0.30199862 -0.43396378
000180 69 0f 95 be 80 ef 53 be 62 3d 1d 3e 1f 53 18 3e
       -0.2911332 -0.20696831 0.15355447 0.14875458
000190 b7 14 2e 3d ce 96 ad bd fc e1 74 be fe 6a 5b be
       0.042500224 -0.08476029 -0.23914331 -0.21427533
0001a0 0f 80 24 be cd 63 d6 bc 24 2a 3c bc ca 85 2f be
       -0.16064475 -0.026170636 -0.0114846565 -0.1714088
0001b0 6f 13 fc bd de 6f 65 bd 24 eb 21 3e e2 05 4c 3e
       -0.12308394 -0.056014888 0.15812355 0.19924119
0001c0 76 fd 23 3e 43 11 e9 3d cd df 27 3d 17 f0 17 3e
       0.16014656 0.113802455 0.040984917 0.14837681
0001d0 69 f2 6e 3e ee 32 af 3d 46 53 27 3d 4b 81 3c bd
       0.2333466 0.08554636 0.0408509 -0.04602174
0001e0 25 e9 2e 3d fd b3 c3 bc c0 c7 38 bd c2 0d 37 bd
       0.042702813 -0.023889536 -0.04511237 -0.044690855
0001f0 bd 1f 8c be bf e8 b8 3c 02 2a 86 bd 5a b7 01 be
       -0.27367964 0.02257192 -0.06550981 -0.126676
000200 a4 95 73 be ba 55 0c be 55 0e 0f 3c 88 16 dc bd
       -0.23787552 -0.13704577 0.008731444 -0.10746485
000210 ce 47 c5 bd e2 68 b4 be bc 1e af be b0 75 9a 3d
       -0.09632836 -0.3523627 -0.34203136 0.07541978
000220 06 d7 6b 3d 43 5a 9d bc a8 9e 89 bc b7 6f 42 be
       0.05757811 -0.01920808 -0.016799286 -0.18987928
000230 37 27 bf 3d 76 62 1f 3e 53 7b 12 3e a2 c9 67 bd
       0.093336515 0.15564904 0.14304857 -0.056588776
000240 5b c1 0a bd 99 f2 6d bd 93 d8 21 3c a0 01 57 3d
       -0.033875804 -0.058092687 0.0098782955 0.052491784
000250 9b ca 4b be 2d 35 1a be 61 25 e4 3e 22 5d 1d 3e
       -0.19901507 -0.15059347 0.44559768 0.15367559
000260 4f 17 f5 bd 57 a6 3c 3e 20 d0 b2 3e de 6f f2 3e
       -0.119673364 0.18422829 0.34924412 0.47350973
000270 50 e3 00 3f 47 c2 85 3e e6 a4 e5 3e 2e c5 b3 3e
       0.5034685 0.26124784 0.4485237 0.35111374
000280 c4 53 4e be 79 b2 ab 3e 4a 1e 0c 3f 28 56 e1 3d
       -0.20149142 0.335346 0.5473372 0.11002761
000290 9b 53 bd bd 0d ca 8a be d4 c5 d2 be 21 8b d1 bd
       -0.09244462 -0.27107278 -0.41166556 -0.10231615
0002a0 9c 33 0b be 46 b6 2d 3e 5c 24 7c 3c 8e 10 82 be
       -0.13593906 0.16964063 0.015389528 -0.25403255
0002b0 7c 03 c5 be 12 a6 42 bd 3f b9 fa bc 53 8e 75 3e
       -0.3847922 -0.04752166 -0.03060591 0.23980074
0002c0 8f 30 8f 3e 08 2d 82 3e f4 9a dc 3e 96 d5 68 3e
       0.27966735 0.2542498 0.4308697 0.22737727
0002d0 fe e8 aa 3d f5 79 68 3e e0 a4 93 3e 01 ff e1 3d
       0.08345221 0.22702773 0.28836727 0.11034966
0002e0 59 4e ee bd 5a 50 cf bd a0 8e 24 3e d1 2f 06 be
       -0.116360374 -0.10122748 0.16070032 -0.13104178
0002f0 ec 63 8d 3d b6 8b 04 3f 45 98 e2 3d 61 4c 10 be
       0.06903824 0.5177568 0.11064199 -0.14091636
000300 66 16 3a 3e 80 6d 3e 3e b7 5d 25 3e e8 bc 9e bd
       0.18172607 0.18596458 0.1614903 -0.07750875
000310 99 12 4e 3e cf 15 59 3e 85 72 51 be 04 8e 1f bc
       0.20124282 0.21199726 -0.20453842 -0.009738449
000320 9f 3f ab 3e 45 80 68 bd dd de d6 be de 60 d3 be
       0.33446977 -0.056762952 -0.41966906 -0.4128484
000330 95 74 3d bd 90 4e cc 3e 9c cd e0 3d 01 a2 c2 bd
       -0.04625376 0.39903688 0.10976717 -0.09503556
000340 5a da 50 3e 5e 24 8c 3e 28 fb 4e 3e 2e 03 cb 3e
       0.20395795 0.27371496 0.20212996 0.39650863
000350 7e 3f 7e 3e 6a c4 7a 3e 6b 4b d6 bd 5a 9d 83 3d
       0.24828908 0.24488989 -0.104636036 0.06426497
000360 39 e2 53 3d f9 78 b1 be 9a 25 99 be df 2b 91 3d
       0.051729415 -0.34662607 -0.299115 0.07088446
000370 48 8b 68 bd 01 7f b0 ba a3 e7 ae 3d a9 1c 7b bd
       -0.056773454 -0.0013465584 0.08540275 -0.06130663
000380 48 12 22 3d 23 90 c3 bd e7 db 75 be 70 de 40 3e
       0.039568216 -0.09548976 -0.24009667 0.18834853
000390 91 9f 5b 3d 7b 28 cd 3c e4 ab da 3d fe a7 37 be
       0.05361897 0.025043717 0.10677317 -0.17935178
0003a0 38 dd 70 be b8 8f 94 bd 8b 48 d5 be 9d e0 1a be
       -0.23521888 -0.07253975 -0.41656908 -0.15124746
0003b0 10 c0 ac be cb 43 df be 73 55 9d bc 3f 9c 01 be
       -0.33740282 -0.4360641 -0.019205784 -0.1265726
0003c0 16 7d 58 be 79 09 aa bd 5f 19 41 be bc f9 f2 bd
       -0.21141466 -0.08302588 -0.18857335 -0.11864039
0003d0 ed 3a 07 3e 5f 4c 1d 3d 9e db 00 3d 7c 07 5b bc
       0.13206072 0.03840291 0.031459443 -0.013368484
0003e0 fe f5 46 be 4f b4 88 3e 97 62 2b 3e fc 3f 85 be
       -0.19429776 0.26700065 0.16736828 -0.2602538
0003f0 21 8c c9 be 73 fa a5 3b 5b 45 21 3e 68 8f 1c 3e
       -0.39364722 0.0050652563 0.15749113 0.1528908

bias f4 [16]
000000 49 be ce bd 51 87 d5 bd d1 1a 3e bd 98 5d af bd
       -0.10094888 -0.104262 -0.046412293 -0.085627735
000010 f6 79 8f be 25 17 3f be 98 a1 85 be 78 1b 0b be
       -0.28022736 -0.18661173 -0.2609985 -0.13584697
000020 3e 69 a7 be a5 6c 7f bd 3e 97 e4 bd 5c ed b4 bc
       -0.3269748 -0.06235947 -0.1116166 -0.022085838
000030 28 5c a6 bd c3 12 ab bd 58 b3 f0 bd 09 73 ac 3c
       -0.08123046 -0.08353188 -0.11752957 0.021050947

weight f4 [120, 400]
000000 f2 7d 7d 3c 34 eb 2c 3e 19 9e b4 bc 37 37 27 3e
       0.015471922 0.16886598 -0.022048043 0.16329657
000010 bb 3f 2d 3c 77 ee a4 3e 9c 2f 77 3c a3 67 c2 bd
       0.010574277 0.32213184 0.015087035 -0.094924234
000020 61 13 3f 3d 6e e8 a7 3d 3c 06 12 bd 96 e6 e2 ba
       0.04664934 0.08198629 -0.035650477 -0.0017311152
000030 54 2d 06 3e 55 76 d5 bd 88 27 bb 3d 81 61 5c 3e
       0.13103229 -0.10422961 0.09138399 0.2152157
000040 2d ab cf 3e af eb 74 3e d0 cd 38 be c8 fa f4 3b
       0.40560284 0.23918031 -0.18047261 0.0074761845
000050 5a 85 fa bb 56 b0 0e 3e 28 21 0b 3c b3 b7 b8 be
       -0.0076452913 0.13934454 0.008491792 -0.3607765
000060 88 32 d1 be b0 99 1b be 51 87 2f be c7 ea ef 3d
       -0.40858865 -0.15195346 -0.17141463 0.11714702
000070 c9 bb 5d 3d a7 6c 46 be b9 3f 40 3b e9 3d 84 3e
       0.054134164 -0.19377385 0.0029334857 0.25828484
000080 be c1 f8 3d 7b 8f 11 3e f0 97 c1 bd 49 e5 1d 3e
       0.121463284 0.1421489 -0.09452808 0.15419497
000090 ad 99 e2 3c 35 82 89 be c4 bf 4a be fa aa 67 3e
       0.027661169 -0.26857153 -0.19799715 0.22623816
0000a0 c6 c3 7c 3e 09 a8 09 3e 29 37 07 3e ce 56 c0 3c
       0.24684057 0.13443007 0.13204636 0.023478892
0000b0 8c a7 10 3d 73 8e 8c 3e 05 5b c9 3e 9a 21 44 3e
       0.035316035 0.2745243 0.39327255 0.19153443
0000c0 7a 26 19 be 89 3c 3d be 31 d7 a7 3d 8d f0 ac 3e
       -0.14956084 -0.18480124 0.081953414 0.33777276
0000d0 ee f1 19 3e f9 48 c4 3e 6e bf 13 3e 7d 70 ea 3d
       0.15033695 0.38336924 0.14428493 0.11447237
0000e0 0c be 7b 3e 7e c8 3b 3e 97 ac 57 3e d8 3d b2 3e
       0.24584216 0.183382 0.21061932 0.34812808
0000f0 a8 69 3e 3e af 96 09 3d 63 8a 0e 3e 4f f4 86 3e
       0.18594992 0.03359097 0.13919978 0.26358268
000100 bd 1f 5c 3d df 3c 0b 3e 65 e1 07 3f 3e 9f 6b bc
       0.053741205 0.13597439 0.530783 -0.014381228
000110 63 c0 68 3b b6 3c 8b bd 6b 4b 59 3e a2 a0 af 3e
       0.0035515062 -0.06798689 0.21220176 0.3430224
000120 e5 aa 2f 3e 53 fd 92 3c 46 c3 49 bc d1 76 69 bc
       0.17155035 0.01794306 -0.012314623 -0.014249519
000130 51 50 52 3e b3 f8 b0 bd 4c 3c df bd 1c d9 8d be
       0.20538451 -0.086411856 -0.109001726 -0.27704704
000140 8e ad 94 bd 95 38 40 3e 43 05 b4 3d 89 62 3a be
       -0.072596654 0.18771584 0.08790066 -0.1820165
000150 bb ed 5f bd e6 a0 a3 3d 4a 67 cf 3d 3c 11 a8 3d
       -0.054670077 0.07989673 0.10127123 0.08206412
000160 8f ec 9e bc 0b c0 be 3d 3b b9 de 3d e7 a7 9d 3d
       -0.01939991 0.09313973 0.10875174 0.076980405
000170 58 7e cb 3d 70 35 6f 3e a5 88 19 3e 3c e6 a6 3d
       0.099362075 0.23360229 0.14993532 0.081493825
000180 d8 67 9e bc 36 45 81 3d ad 96 b3 3d d6 a6 0d 3e
       -0.019336626 0.06312029 0.087689735 0.13833174
000190 41 49 e7 3d 9c 9f e3 3e 27 2b 1d 3e 33 77 65 bc
       0.11293269 0.4445771 0.15348493 -0.01400547
0001a0 20 ef c8 bc 78 3d 05 3e 3a 0c 05 be 9b 96 60 3e
       -0.024528086 0.1301173 -0.12992945 0.21932451
0001b0 46 e4 1b 3e 54 0c 11 be 6f e8 1c 3e 00 42 bb 3d
       0.15223798 -0.14164859 0.15323041 0.09143448
0001c0 c3 7f a4 be 56 94 c7 3d bb e6 e9 3d f2 36 d1 3e
       -0.32128724 0.0974509 0.114209615 0.40862232
0001d0 c6 0d 0f 3e e8 b6 a7 bb 28 f4 62 3e 36 91 68 3d
       0.13970098 -0.0051182397 0.2216345 0.05677911
0001e0 36 45 a9 3e d7 25 ac 3d 4e ad 4d be 6c ed 17 be
       0.33060616 0.08405655 -0.20085642 -0.14836663
0001f0 5c 7e eb bc e3 11 fb 3d 14 4a 7f 3e 67 2b 3b 3e
       -0.028746776 0.12259271 0.24930602 0.18278275
000200 87 a4 1c 3e e7 88 ca 3e eb 72 40 3e f0 66 e1 3e
       0.15297137 0.39557573 0.18793838 0.44023848
000210 a9 e2 50 3f 66 86 75 3e 95 9e d1 3e bd b8 92 3e
       0.81595856 0.2397705 0.409413 0.2865657
000220 ae c1 da 3d 8a 85 aa bd 3a 3e 49 3d 26 0c 9c be
       0.10681473 -0.08326252 0.04913161 -0.3047802
000230 23 6f 6a 3e f3 0c 0f 3e 91 cf b5 3d 6d 3a 89 3e
       0.22893958 0.13969783 0.08877481 0.26802388
000240 e5 67 b4 bc f8 3f 2f bd 58 8f 75 3c 20 d2 9a 3c
       -0.022022197 -0.042785615 0.014987789 0.018899024
000250 91 4f 12 3e fa d0 d8 3d 03 67 95 bd d6 aa ae 3e
       0.14288165 0.10586734 -0.072950386 0.34114712
000260 88 77 96 bd 93 5d e0 bd cf 5f 56 bd 05 d1 a8 bd
       -0.073470175 -0.10955348 -0.052337464 -0.08242992
000270 58 9a c6 bd 48 c6 5f bd 37 12 ef 3d af 96 25 3e
       -0.096974075 -0.054632455 0.11673396 0.16170762
000280 af a8 92 3c da 65 e6 bd d0 99 16 bd 3d 1c 4e 3e
       0.0179027 -0.112498954 -0.03676778 0.2012796
000290 d7 e8 5d bd 95 40 1b 3e d7 a6 c7 bd ab 81 ee 3d
       -0.05417713 0.15161355 -0.09748619 0.11645826
0002a0 86 c1 f7 3e 42 19 0b bd 0b 56 a4 3d ba 4e 93 3d
       0.48389834 -0.033959635 0.08024224 0.0719275
0002b0 e5 95 86 bd 6a 6d 09 3e b2 a5 09 be 0a 56 61 3e
       -0.06571559 0.13420644 -0.13442114 0.22005478
0002c0 bd 45 9e 3e 7b fe 8b 3e 6d 6c 35 3e 11 02 82 3e
       0.3091258 0.2734259 0.17717142 0.25392202
0002d0 34 31 01 3e b4 99 26 3e 14 30 99 3e 5e 8a b7 3e
       0.12616426 0.1626957 0.29919493 0.35847753
0002e0 47 4d 54 be 56 1a 89 3e 37 a9 39 3e 7c 35 87 3d
       -0.20732604 0.26777905 0.18130957 0.06601998
0002f0 0d 1e 02 be fb be 02 3e 0a 69 a0 3e f4 ad f8 bd
       -0.12706776 0.12768166 0.31330138 -0.12142554
000300 53 82 33 be b0 58 99 3e 70 e2 8a bd 23 cc ac 3d
       -0.17530183 0.29950476 -0.06781471 0.084373735
000310 14 b3 fd bd 62 49 8e bd f6 7d 86 3e 35 59 b6 3d
       -0.12387672 -0.069475904 0.26267976 0.08903734
000320 f8 10 33 be 4b 26 cd bd 81 24 41 bd c8 86 ce 3d
       -0.17486942 -0.100170694 -0.047153953 0.10084301
000330 b9 9f db 3c 9a bc c6 3e 66 13 84 3d 49 87 e9 bd
       0.02680956 0.38815767 0.064490125 -0.11402757
000340 8c 76 4c be 93 1e 22 bd ec 41 1c 3e b7 c2 f6 3a
       -0.19967097 -0.03957994 0.15259522 0.001882634
000350 74 a9 60 be b5 96 f5 3d 82 c9 8e 3d 44 07 63 be
       -0.21939641 0.11991636 0.06972028 -0.2217074
000360 f4 b4 f5 3c f1 9f e8 3d bf 77 05 be 32 c0 75 3c
       0.029993512 0.113586314 -0.13033961 0.014999436
000370 e8 11 89 3d a4 c5 85 3e 21 bd 9a 3e 22 6d 15 be
       0.066928685 0.2612735 0.3022242 -0.14592412
000380 fb f2 46 be 18 b9 78 3d 06 6c 0e 3e 28 61 56 be
       -0.19428627 0.060723394 0.13908395 -0.209355
000390 e4 19 90 be 55 98 aa 3e df d9 c9 3d d7 9f eb 3d
       -0.28144753 0.33319345 0.09856009 0.115050964
0003a0 bb 46 42 3e 65 2e d7 ba a9 26 9b bc 71 c8 69 3e
       0.18972294 -0.0016417025 -0.018939333 0.22830369
0003b0 0a a2 3b 3e ae 14 2f 3d 86 d0 9e be e5 0e 1a bd
       0.18323532 0.04274433 -0.31018466 -0.03761186
0003c0 b1 63 90 3e c0 65 ce ba cf 04 68 be ed 86 0a 3e
       0.28201059 -0.0015746877 -0.22658084 0.13528033
0003d0 06 8f 1a 3e 96 c3 3f 3e a5 ff d6 bd 3a a5 b2 3d
       0.15093622 0.18726954 -0.10497979 0.08722921
0003e0 8e 4d 4b 3e 84 92 47 bb 56 cd cf 3d 94 6e cb 3e
       0.19853804 -0.003045232 0.101465866 0.39732802
0003f0 9b a3 63 3e 8f 73 1a 3e 4c 6a 91 3e ca de 2b 3e
       0.2223038 0.15083145 0.2840141 0.16784206

bias f4 [120]
000000 7d 3d 4b 3e e6 13 1d bd 79 6e 60 3d c4 90 74 bd
       0.19847675 -0.038349055 0.054792855 -0.05970837
000010 e7 1a 86 bc cd 25 95 3d 08 ad fa 3c 44 3b 70 3d
       -0.01637025 0.072826006 0.030600086 0.05865027
000020 e1 87 79 3d ee 0c f8 bc e6 db d2 3d 96 a5 17 3d
       0.0609206 -0.030279603 0.102958485 0.03702315
000030 91 a1 5e 3d f8 82 26 be 76 58 71 3d 47 db 07 39
       0.0543533 -0.16260898 0.058922254 0.0001295629
000040 5a 8c 92 3d dd 01 f7 bd 3b a5 d0 bd ba 07 97 3d
       0.07155676 -0.12060902 -0.10187765 0.073745206
000050 a1 15 ae bc 44 5b f6 bc 2c 93 f5 bd d8 09 ab bc
       -0.021250548 -0.030072816 -0.119909614 -0.020878717
000060 79 68 bd 3d 6c c1 e1 3d 50 e2 a4 bd 56 84 82 bd
       0.09248442 0.110232204 -0.08050978 -0.06372897
000070 84 de 2e be d5 2e 92 3d fc 95 45 3c 8c 8b d7 3b
       -0.1707707 0.07137839 0.012059685 0.0065779146
000080 7d 7b cd bc 01 9d 31 3e 76 be 0e 3e 35 97 81 3d
       -0.025083298 0.17345048 0.13939843 0.063276686
000090 f2 90 92 bd 2a ca eb bd 9a 89 36 bd 2f 76 ac bd
       -0.071565524 -0.11513169 -0.04456482 -0.08420979
0000a0 ea 3e 96 bd 7d f3 ba bd 24 42 27 3d a1 63 f6 bd
       -0.07336219 -0.09128473 0.04083456 -0.120307215
0000b0 be 98 3a 3d 1e 10 5f 3d 5f 4e 0a bd 6c 5a 93 bd
       0.045555823 0.05445873 -0.033766147 -0.07194981
0000c0 a0 e2 2d 3e 40 ec e0 ba b5 2e 1d 3e d3 81 ee bc
       0.16980982 -0.0017160252 0.15349849 -0.02911464
0000d0 cd 71 7c bd b8 35 8a 3d 13 40 ca bd 33 eb f2 bd
       -0.061631966 0.06748527 -0.098755024 -0.11861267
0000e0 32 6e 44 bd 37 86 24 3d e6 87 b3 3d f5 15 9e bd
       -0.047956653 0.04016706 0.08766155 -0.07719032
0000f0 e8 4d 6d be cf e4 2d bc 92 a1 b2 bc e6 7c 88 bb
       -0.2317425 -0.010613634 -0.021805558 -0.0041652797
000100 4b c8 8d 3d 2f 80 02 be d1 43 02 be 2b 5e d2 3c
       0.069229685 -0.1274421 -0.12721182 0.025679668
000110 0e 56 06 3e 8d 4f 40 3d 05 8d 01 bc c0 46 df 3c
       0.13118765 0.046950866 -0.007907157 0.027255416
000120 bb be 4c bd 38 9e ab bc ee ca d0 bd df c2 a7 bc
       -0.049986582 -0.020949468 -0.10194956 -0.020478664
000130 67 e4 3c bd 5e bb 0a bd 61 b4 bb bc e7 8a 4a 3d
       -0.04611626 -0.033870094 -0.02291316 0.049448874
000140 7b 06 8a bd bf 9b 1b be 72 e4 35 be 34 ad 3e be
       -0.06739517 -0.15196131 -0.17762926 -0.18620759
000150 4e 3c 18 3d d0 48 3d bc 2d 7f 8a bd 3c f1 51 3d
       0.037166886 -0.011553004 -0.06762538 0.05125545
000160 7d 0f 3f 3d e8 bd 35 bd 60 c3 a1 3d dc 32 88 3a
       0.04664563 -0.04437056 0.07898593 0.0010391134
000170 f9 bc b7 bd 49 99 20 be 5e be ef 3c 52 f7 75 3d
       -0.089715905 -0.15683474 0.029265579 0.060050316
000180 5a cf ab 3d 19 08 b3 bd 42 53 41 3d 1a 09 95 3d
       0.083891585 -0.08741779 0.04719854 0.072771266
000190 73 e7 77 bd 80 c8 a2 3d 68 64 7d 3d 9e 59 8f 3c
       -0.06052346 0.079483986 0.061863333 0.017498787
0001a0 16 21 5d 3e 46 39 bb bc a0 ed f5 bb 83 d1 8f bd
       0.21594653 -0.022854459 -0.0075051337 -0.07022383
0001b0 13 a2 ac 3c 12 17 3a bd 33 e3 0a be 4c 84 f3 ba
       0.021073377 -0.045432158 -0.13563232 -0.0018578856
0001c0 ff 6b f9 3d 19 bf 3c bd 95 ab 51 3d 37 b6 ae 3d
       0.12178802 -0.046080682 0.051189024 0.085308485
0001d0 83 07 02 be 02 08 67 bc 87 71 53 bd 6e 9b 90 bd
       -0.12698178 -0.01410103 -0.05162194 -0.07060896

weight f4 [84, 120]
000000 e2 cf 0d bf dd 7d ac bd 61 f5 e1 3e 1d 31 78 be
       -0.5539533 -0.08422444 0.44132522 -0.24237485
000010 20 14 8b 3e 8b aa 5e 3e 0e 7c e1 3e 3f f5 26 bd
       0.27163792 0.21744744 0.4403996 -0.04076123
000020 22 3a 37 be b5 30 e5 bd 71 fe 81 be bf 15 20 be
       -0.1789327 -0.11190931 -0.25389436 -0.15633295
000030 62 48 8d 3e 07 b0 06 bc 8d 43 f5 be 62 97 71 3e
       0.27594286 -0.008220679 -0.479031 0.23592904
000040 93 cd 21 bf f9 33 80 3e f7 8b 80 be 91 5f d9 be
       -0.63204306 0.25039652 -0.25106785 -0.42455724
000050 46 42 44 3e c8 cc 39 bf 2c 1e ef be fb c7 fd bd
       0.19165906 -0.72578096 -0.46702707 -0.12391659
000060 16 9a cc 3c d5 5f 73 3d 62 3c 3c bd 64 32 8c 3f
       0.024975818 0.059417564 -0.045956023 1.0952878
000070 4d 92 8b be 65 56 66 be 91 ed c3 bd 4b 04 95 be
       -0.27260056 -0.22493894 -0.095667966 -0.29104838
000080 c0 73 38 be 97 69 17 be 77 7b f3 be 53 64 10 3d
       -0.18012905 -0.14786373 -0.47555134 0.035251927
000090 12 56 08 3d 7c 22 4e 3e fd 74 84 be d1 6e 07 3e
       0.033285208 0.20130342 -0.25870505 0.13225867
0000a0 00 6a 05 be df 90 35 3f 69 d3 ca 3e 77 21 e5 3e
       -0.13028717 0.7092418 0.39614418 0.44752094
0000b0 e7 27 4a 3e 52 9a ed be 5e 27 71 ba 1e 21 fc 3e
       0.19741784 -0.464068 -0.00091992866 0.49244016
0000c0 5a e3 40 be 2b 0e 59 bc 40 d8 ea bd 4f 62 6d be
       -0.18836728 -0.013248007 -0.11467028 -0.23182033
0000d0 d2 23 4b 3f a0 8a 43 be 60 b5 8c 3e f0 92 8d be
       0.7935153 -0.1909585 0.27482128 -0.27651167
0000e0 04 15 04 3f 11 e0 21 3f 34 05 a6 be bf e6 92 3e
       0.5159457 0.63232523 -0.32425845 0.2869167
0000f0 f6 a4 19 3f b2 55 e3 3e 6d f2 c6 bc 23 47 81 3e
       0.60017335 0.44401318 -0.02428552 0.25249586
000100 76 bd 77 3b ce 88 a2 3e 4d c8 9d 3e 6d 38 17 bf
       0.0037802137 0.31745 0.3081688 -0.59070474
000110 76 0b 52 be 2b 9e fb 3e f0 ff 00 3d 07 f7 a6 bd
       -0.20512185 0.4914411 0.03149408 -0.081525855
000120 3c e1 05 3e 21 e1 79 bc c0 b1 9b 3b 31 d5 d8 be
       0.13074201 -0.015251429 0.004751414 -0.42350152
000130 8a 7a bb 3e 49 db 50 bd cb 75 38 be cd 21 44 3d
       0.36616927 -0.050990377 -0.18013684 0.047883797
000140 d6 ad 0d bc 50 65 00 bf 63 02 b0 3d 8a 0b c9 3e
       -0.008647403 -0.5015459 0.08594205 0.39266616
000150 2f 0b 04 3c 0c cb c5 3d cc 4c 76 3d 2d 42 5b be
       0.008059307 0.09657869 0.060131833 -0.21411963
000160 c0 de 87 3d f5 dd 13 3f aa be cc be 4c b3 91 3e
       0.06634283 0.57760555 -0.39989215 0.28457105
000170 4d 71 ba be ee a1 4a 3e e0 b1 8c be da c2 ea bd
       -0.36414567 0.19788334 -0.27479458 -0.11462946
000180 a1 bf da 3d 17 0d 05 3e ee 6a fa 3c 6f 2d 30 be
       0.106810816 0.12993275 0.030568566 -0.17204832
000190 2d 9c e4 3e 0d 64 27 bd d2 8a 3e be 89 49 cb 3d
       0.44650403 -0.0408669 -0.18607643 0.09926135
0001a0 75 06 64 be 14 20 cd bd 2f c4 3e be 7b a4 10 be
       -0.22268088 -0.10015884 -0.18629526 -0.14125244
0001b0 83 72 0c 3e 37 4b 04 3e 59 6f d0 3d 79 08 85 be
       0.13715558 0.12919317 0.10177488 -0.25983027
0001c0 88 51 01 3e c0 fb 10 3e c1 1a ef be ca aa bd bc
       0.12628758 0.14158535 -0.467001 -0.023152728
0001d0 76 4c cc 3e eb ff 70 3e 97 a8 77 be c8 12 2b 3e
       0.39902085 0.23535125 -0.24185406 0.16706383
0001e0 89 e2 14 3f 5f cc 0d be 60 7f 50 3e a1 a6 e6 bd
       0.58158165 -0.13847493 0.2036109 -0.11262251
0001f0 0b 8a d2 be c0 96 d5 be 00 2d 47 be ad fc 0d be
       -0.41120943 -0.41716576 -0.1945076 -0.1386592
000200 c2 21 40 3c 93 e5 aa 3e c6 4a dd bd 6e 10 d4 bc
       0.0117267985 0.33378276 -0.108052775 -0.02588674
000210 be 25 09 3e 5a 38 b9 3d 9b 03 af 3e c3 1e a9 bd
       0.13393304 0.09043951 0.34182438 -0.082578205
000220 28 bd db 3e fb df 1b 3c 9b 27 11 3f f7 ee 3a 3e
       0.42917752 0.00951385 0.5670106 0.1825522
000230 e0 20 f5 3e 71 3d ab 3e 15 25 cf be 2b c1 1d 3e
       0.47876644 0.33445314 -0.4045798 0.15405719
000240 d7 f4 a3 be 1a 93 02 3b a5 13 74 be a4 33 71 3e
       -0.32022735 0.0019924105 -0.23835619 0.23554856
000250 e2 21 8a be 24 4e da 3d 0d 8a 46 be 8a 48 17 be
       -0.26978976 0.106594354 -0.193886 -0.14773765
000260 95 79 b9 3d 46 2b c2 3e 79 5a ff 3e a3 46 5b 3e
       0.09056393 0.3792364 0.49873713 0.21413665
000270 0b bb 3b be df 36 3a 3e a3 3d 6d 3e e6 c9 83 3e
       -0.1833307 0.18184994 0.23168044 0.25739974
000280 c8 40 b2 be 26 26 b3 be d6 e4 f0 bd bc 84 99 be
       -0.3481505 -0.34990042 -0.11762397 -0.2998408
000290 c6 62 03 3e b8 41 ad 3e 89 04 36 3e 07 41 52 bf
       0.12830648 0.33839202 0.17775168 -0.82130474
0002a0 8a f2 a3 3e 33 e4 80 3d 76 03 d1 3e 9e bb bb 3d
       0.3202098 0.062935255 0.40822953 0.091666445
0002b0 1e 45 06 be 1d b0 e7 3d 10 ed df be a0 ff 55 be
       -0.13112304 0.11312888 -0.43735552 -0.20898294
0002c0 54 5d 15 3f 70 0d bd be 24 c2 73 be 26 43 69 be
       0.5834553 -0.36924314 -0.23804528 -0.22779521
0002d0 63 04 15 bf 5a 95 07 bf 3a 4d 06 3e 99 c7 ff bd
       -0.5820982 -0.5296227 0.13115397 -0.12489242
0002e0 e7 f7 83 3e f0 de 64 be d3 47 8b be 44 6a 01 3f
       0.25775072 -0.22350669 -0.27203235 0.50552773
0002f0 54 9f 12 be ed e4 45 be 36 f6 ad 3e fc fb c4 3d
       -0.14318591 -0.1932561 0.33976907 0.09618375
000300 ec f8 7c be 17 ae b4 be 64 f8 31 3e 9c 23 d5 3e
       -0.24704331 -0.3528907 0.1737991 0.4162873
000310 50 ee b1 be 30 ef 20 bd 4e f6 9b 3e ed 5c a6 be
       -0.3475213 -0.039290607 0.30461353 -0.32492772
000320 4d 79 8a 3e 08 3f 6f 3c f3 2a 66 be 6c 4f 06 bf
       0.2704567 0.01460243 -0.22477321 -0.5246494
000330 f8 50 7e 3e a5 44 8f be ea 7b e7 be 5a 95 92 3e
       0.24835575 -0.2798206 -0.45211726 0.2862957
000340 63 e2 b4 be 8e f1 11 be c9 81 8c 3e 4b 8b 95 bc
       -0.3532897 -0.14252302 0.27442768 -0.018254897
000350 8b fc a2 3e 2c 7e 28 bf 1f 95 1f 3f 9c 1e c2 bd
       0.318333 -0.65817523 0.62336916 -0.094784945
000360 8d 80 80 3e cc a7 4f 3d 96 9b 39 3e b2 ee 85 3e
       0.25098076 0.050697133 0.18125758 0.26158673
000370 11 50 96 be 78 78 3c 3c 13 13 8e 3e 8c c1 fa be
       -0.2935796 0.011503331 0.27748927 -0.4897579
000380 39 35 e4 bc e3 7f 66 be dd d9 89 3e 3d 0b 68 3e
       -0.02785741 -0.22509722 0.2692403 0.22660537
000390 e2 c4 7b 3e a2 ec b2 bd 84 be 2c bf 8c f1 72 3e
       0.24586824 -0.087365404 -0.67478204 0.23724955
0003a0 d9 2c b4 3d 7f 9e 8f be 8f 64 9a 3e 67 80 b1 3e
       0.087976165 -0.2805061 0.30154845 0.34668276
0003b0 f6 65 dd 3d 85 c0 92 3c f4 14 ec be ff 23 ce bd
       0.10810463 0.017914066 -0.46109736 -0.100654595
0003c0 00 1d ac be 76 6f 0a bc d7 d9 af be 7a 10 a5 bd
       -0.33615875 -0.008449426 -0.34345886 -0.08059783
0003d0 86 b2 e6 3e 92 70 7e be 85 9c 91 be 94 25 7a be
       0.45058078 -0.2484763 -0.28439727 -0.24428397
0003e0 07 2a e6 3d c4 ab 12 be 3d 01 8b 3e e9 ba c9 bd
       0.11238485 -0.14323336 0.27149382 -0.098501034
0003f0 92 cd b9 be e7 45 e0 3c 45 67 94 be 12 2c 7a be
       -0.3628965 0.027377082 -0.28985038 -0.24430874

bias f4 [84]
000000 e7 11 42 3d 38 ba 45 bc 31 9b eb 3b 6e 2d d6 bc
       0.047380354 -0.012068324 0.007190131 -0.02614471
000010 ca 9a 9b bd f8 cb e2 3d 2d 7a e8 bd f0 c8 fd 3c
       -0.07597883 0.1107406 -0.11351428 0.030979604
000020 4a b6 6c 3d e6 8a 69 bd ba 9d ff bc bb 5f af 3c
       0.057791032 -0.05701723 -0.03120314 0.021407953
000030 a0 af 31 bb 0b a8 16 3d 02 a7 82 3d 31 b2 a1 3c
       -0.0027112737 0.036781352 0.063795105 0.019738289
000040 cc b3 0f bc a1 e2 1e bc 81 be 22 bd 62 21 e6 3b
       -0.008770894 -0.009697587 -0.03973246 0.0070230225
000050 d6 7b a8 3a 61 d2 73 bd f6 53 c7 bd 7c 34 bd 3d
       0.0012854289 -0.059526805 -0.09732811 0.09238526
000060 2d 23 b3 3d 6b 8e 9e bd 62 50 f9 3a 4b d9 d4 3d
       0.087469436 -0.07742008 0.0019021148 0.10393008
000070 87 3e bc 3d b4 8b bb 3b 39 70 16 bc 24 a4 c5 bd
       0.09191614 0.005723441 -0.009182029 -0.09650448
000080 d7 12 be bd db b7 a3 3d 42 7d 6a 3d ca a4 83 3d
       -0.09280937 0.07994052 0.05724836 0.064279154
000090 91 07 b7 bd 18 49 a1 bd 92 97 2e 3c a1 f1 cd bd
       -0.0893699 -0.0787527 0.010656254 -0.10055853
0000a0 0e 44 52 3d 34 b9 be 3b a8 f9 b9 bd d6 34 ba 3d
       0.051334433 0.005820418 -0.09080821 0.09092109
0000b0 35 47 aa 3a 8e e3 82 3c 07 de 84 bd 23 ca a8 3d
       0.0012991192 0.015977647 -0.06487661 0.082416795
0000c0 9a eb 9b 3b 54 c0 86 3d 07 76 0d bd 05 c6 29 bd
       0.0047583105 0.065796524 -0.034536388 -0.04144861
0000d0 08 51 53 3b 9c 5d cd 3d 01 94 c8 bd a6 d9 17 3d
       0.0032244343 0.1002762 -0.097938545 0.0370728
0000e0 19 ac 2f 3d 81 2a 6f bd 26 10 dc 3d b2 43 aa 3a
       0.042888734 -0.058390144 0.107452676 0.0012990145
0000f0 ef 3a c4 bd 11 08 aa bb 4e 8a af 3c e8 f7 ac bc
       -0.09581553 -0.00518895 0.021428254 -0.021114305
000100 58 91 b4 3d 8c d2 64 bd bb e6 48 3d 13 d6 5f 3c
       0.088167846 -0.055864856 0.049048167 0.013661879
000110 7f c1 ef 3c 56 ac 83 bd f7 63 75 3d f1 d6 81 3d
       0.02926707 -0.06429355 0.059909787 0.06339825
000120 c2 65 d6 ba ef 4b 88 3d 80 2a e7 3d c8 d8 55 bd
       -0.001635723 0.06655108 0.11287403 -0.05220869
000130 b6 fe 9f 3d 8e 86 81 bd be 05 02 3c 7c a9 e1 3d
       0.07812254 -0.063244924 0.007935939 0.11018655
000140 46 4f 7b 3d 7e 41 e9 3d 10 79 53 3d be a7 66 3d
       0.061354898 0.11389445 0.051629126 0.056312315

weight f4 [10, 84]
000000 f8 85 11 bf 51 bc 25 be bd 2d 9c 3d 74 d3 af 3e
       -0.56845045 -0.16185118 0.076259114 0.34341013
000010 43 05 0f 3f 37 32 86 3e 36 a6 24 bf 8b d3 9a be
       0.55867404 0.26210186 -0.6431612 -0.3023952
000020 b0 b3 b4 3d d1 55 eb 3e dd e4 5b bf 4c 1d 4a bf
       0.08823335 0.4596391 -0.8589609 -0.78950953
000030 12 65 13 bf 4d b0 2e 3e a3 d8 cb be 9c 71 67 bf
       -0.57576096 0.17059441 -0.39813718 -0.9040773
000040 91 cd 38 bf 1c 49 82 be d0 d7 ad 3e 7d 7c c6 3e
       -0.7218867 -0.25446403 0.33953714 0.38766852
000050 f1 5e f3 3e 0a 38 98 bf a2 73 a2 bc 1d 87 2c bf
       0.47533372 -1.1892102 -0.019830529 -0.67393667
000060 02 0c bc 3e 60 fa 5a be e9 a0 87 bd 70 d3 b2 3e
       0.3672791 -0.21384573 -0.06622488 0.3492694
000070 af d6 94 3e 3f c1 80 bf b1 a4 01 3f 6f 35 3d bf
       0.2907004 -1.0058974 0.50641924 -0.7390966
000080 6d 30 d4 3e f8 70 fd be 05 51 78 3e 3c f6 e8 3e
       0.41443196 -0.4950025 0.24249656 0.45500362
000090 f2 3b 0c bf 54 83 01 3f 0c c6 84 bf 08 cb 09 3f
       -0.5477897 0.50591016 -1.0372939 0.53825426
0000a0 f4 67 b8 3d 3d f8 93 3e f0 2b c1 3e 67 06 27 bf
       0.090042025 0.28900328 0.37728834 -0.65244144
0000b0 57 19 03 bd 78 07 29 3f 18 e8 35 bf 14 32 54 bf
       -0.032006588 0.6602702 -0.7105727 -0.82888913
0000c0 d0 3d 8d 3e b2 7b fc be ba 49 79 bf c0 71 77 bf
       0.27586222 -0.49313122 -0.9737812 -0.96657944
0000d0 85 12 13 bf 71 42 4a bf 40 b6 02 3e e7 ed 0a 3f
       -0.57450134 -0.7900763 0.12764835 0.5426926
0000e0 5c 53 71 bf 57 5b 2b 3f 4b 6c 28 bf 85 f3 79 bf
       -0.9426782 0.6693625 -0.6579024 -0.97637206
0000f0 26 7c e1 be 63 d7 b4 3e 75 ca 7d bf 81 82 ea 3e
       -0.4404003 0.35320577 -0.9913705 0.45802692
000100 a8 a2 60 bf 7a 90 df be 85 0d 11 bf 9b b9 d0 bd
       -0.87748194 -0.43664914 -0.56661254 -0.101916514
000110 ac 22 14 3f c5 eb 16 3f 64 e0 fb 3d 53 59 e0 3e
       0.57865405 0.58953506 0.122986585 0.4381815
000120 fb 04 ec 3d 0b 68 00 bf 50 b9 01 3f 64 7f 6d bf
       0.115243874 -0.50158757 0.5067339 -0.9277251
000130 8a 52 ad 3e a0 94 bd 3e 07 60 89 3e 29 9d 78 bf
       0.33852035 0.37027454 0.26831076 -0.9711481
000140 e8 9c 02 3f 8b 9b b0 3e 5e 88 0e 3f 3b b7 11 3f
       0.5102067 0.3449367 0.5567683 0.5692021
000150 7d 3b 28 bd bd da 01 bf b6 1e 5b bf ed cf 2c bf
       -0.041072357 -0.50724393 -0.85593736 -0.6750477
000160 6c f7 00 bf 51 eb db be 67 77 3a bf 1f de 07 3f
       -0.50377536 -0.4295297 -0.72838444 0.53073305
000170 9c ca 8f bf cd cf 4f bf 68 d1 97 3e 80 a5 a4 3e
       -1.1233706 -0.81176454 0.29651952 0.32157516
000180 e7 54 dd 3e 00 77 6e bf 02 c5 e7 3e 5e c9 10 be
       0.43228838 -0.9315033 0.45267493 -0.14139315
000190 ce b1 db 3e 2a e7 07 bf d7 c9 d6 be 37 d9 98 3e
       0.42909092 -0.53087103 -0.41950867 0.29853222
0001a0 7a b6 23 bf fd 1b e1 3d 4d c3 ae 3e 79 71 9a 3e
       -0.6395031 0.109916665 0.34133378 0.30164698
0001b0 8f 0b ff 3e 3c c4 8c 3e 6a ff fd 3e b5 15 3c bf
       0.49813506 0.27493465 0.49608928 -0.7347062
0001c0 d8 18 56 bf 9e c9 c5 3e 18 12 b7 3e d9 ff 75 3e
       -0.8363166 0.38630384 0.35755992 0.2402338
0001d0 d4 97 91 3e 50 85 97 3e 85 97 38 bf c7 74 fd be
       0.28436148 0.29593897 -0.721062 -0.49503157
0001e0 79 3d 6b 3e 5e c7 1d bf 41 08 eb 3c f1 03 a9 be
       0.22972669 -0.61632335 0.02869046 -0.3301082
0001f0 85 d4 d8 3d 7c f9 ae be a6 09 77 3e 34 9d 66 3e
       0.1058741 -0.34174716 0.24124774 0.22520906
000200 ca 29 94 3e a4 fb ee 3e 3e 69 88 3e 75 ea 0a bf
       0.28938133 0.46676362 0.26642793 -0.54264003
000210 94 cc a5 3e 1b 8c 89 3e f3 86 88 3e e1 bb 27 bf
       0.32382643 0.26864704 0.26665458 -0.65521055
000220 39 b9 f8 be 08 46 b3 3e 12 3a a9 3e fa c5 f6 be
       -0.48578814 0.35014367 0.33052117 -0.4819792
000230 1d 26 a3 3e 3c 92 a3 be 36 02 a8 3d 09 3e 29 3e
       0.31865016 -0.31947505 0.08203547 0.16527571
000240 60 86 aa 3e 2c d5 67 3d 5c b8 19 3e 8d 69 3a bf
       0.33305645 0.05659978 0.15011734 -0.7281731
000250 79 28 21 3e 1f 51 5b 3e a5 e5 2d 3e 11 82 c3 3e
       0.15738095 0.21417664 0.16982134 0.3818517
000260 c7 4a 02 bf 5c 0d ea be 9d 10 fd be d2 0e 2f bf
       -0.5089535 -0.45713317 -0.49426737 -0.6838199
000270 e4 81 d0 3e a4 53 ff bd 19 a5 ad 3e 90 f9 0e bf
       0.407241 -0.12467125 0.33915022 -0.5584955
000280 5e db 4d bf 3d 0b 11 bf c6 6a cd be a1 5c 6e 3e
       -0.8041285 -0.56657773 -0.40120524 0.23277523
000290 ed 80 2d 3d 2a 45 2a bf 60 f5 5f 3d b5 9c c4 3e
       0.04235928 -0.66511786 0.054677367 0.38400808
0002a0 56 b8 5b 3e cf b5 30 be 37 3a 75 bf a2 7d 0c bf
       0.21457037 -0.17256854 -0.95791954 -0.548792
0002b0 df e2 2f 3f f4 a4 c9 3d e3 a0 05 3f 32 17 ca be
       0.6870555 0.098459154 0.5219862 -0.39470822
0002c0 ea 2e 60 3f 59 78 07 bf 5c be 1b be 8d b6 08 bf
       0.87571585 -0.5291801 -0.15209335 -0.5340355
0002d0 1d 56 4e bf 15 44 bf be 22 cf 75 bf e0 d9 41 3e
       -0.8060015 -0.3735663 -0.96019185 0.18930769
0002e0 03 76 26 bf 90 b9 c0 bd 75 22 4d bf 5b de 50 3e
       -0.6502382 -0.09410393 -0.801307 0.20397322
0002f0 3d 01 18 bf fd 17 9e 3e 0b 51 ff 3e dd cc ab 3e
       -0.5937689 0.30877677 0.49866518 0.33554736
000300 e6 a2 15 3f ab eb d3 bd 86 a0 56 bf 4b 3c 02 3f
       0.5845169 -0.103476845 -0.8383869 0.5087325
000310 ab 11 2e 3f 8e c6 3b bf 03 63 95 3e 1e c7 c4 3e
       0.6799571 -0.73349845 0.29177102 0.38433164
000320 b7 06 35 bf 78 47 f5 be 1c 23 04 3f 05 ff 96 3e
       -0.7071337 -0.4790609 0.5161607 0.2949144
000330 13 02 ba 3c d3 1e d4 3e 2b f4 18 bf 35 f1 c6 3e
       0.022706067 0.41429767 -0.5974757 0.388559
000340 69 6e 00 bf 0c 89 12 3f 60 ff 90 3e 2c 55 d9 3e
       -0.5016847 0.57240367 0.28319836 0.42447793
000350 fc 36 a0 3e f7 f1 d7 3e 16 22 1a 3f 8f 79 db be
       0.3129195 0.42176792 0.6020826 -0.4286618
000360 c1 e9 9e 3e f2 b9 56 bf d1 ce eb 3e c1 ae 64 bf
       0.31037715 -0.8387748 0.46056226 -0.89329153
000370 2a a6 e4 3e 61 e7 1f 3f 0f de 86 3e 12 c0 0f bf
       0.44658023 0.6246243 0.26341292 -0.5615245
000380 50 b3 e8 3e 83 7d e7 be fc e8 1d bf 77 8d 90 be
       0.45449305 -0.45212945 -0.6168363 -0.2823293
000390 2e 37 19 3f 0c 69 80 bf c7 dd f5 be a1 87 fc 3e
       0.5984982 -1.0032058 -0.48020765 0.49322227
0003a0 f8 72 83 bf f2 8c 4f bf 49 b8 a3 bd 8a 00 7e 3d
       -1.0269461 -0.8107444 -0.07994134 0.062012233
0003b0 2b 10 89 bf e6 4b 16 3e 9a 2e fd 3e 8b 6b 1e bf
       -1.0708059 0.1467739 0.49449617 -0.6188285
0003c0 ec 00 f0 be 44 46 9d be 16 77 28 bf 8b 25 98 be
       -0.46875703 -0.3071767 -0.6580671 -0.29716143
0003d0 ad 39 6a bf 42 a3 5c bf cb 71 d3 3e fa 57 4f bf
       -0.91494256 -0.8618661 0.41297755 -0.80993617
0003e0 69 a2 f8 3e 55 16 28 bf 4a 6c e9 3e 32 20 68 bf
       0.4856141 -0.65659076 0.4559043 -0.90674126
0003f0 93 e9 86 bf 55 e8 07 3f 8c 4a 24 bf 97 53 b6 3e
       -1.0540031 0.53088886 -0.6417625 0.3561065

bias f4 [10]
000000 91 c5 c2 bb c2 b9 bc bd 14 83 85 bc 70 af 44 bc
       -0.005943962 -0.09215118 -0.016297854 -0.012004718
000010 e0 38 43 3b bc c7 b0 3c c7 3d 42 bd 5a 60 0b 3e
       0.0029788539 0.021579616 -0.047422197 0.13610974
000020 f6 57 cc bd 81 60 e5 bc
       -0.09977715 -0.028000118
