计算机视觉实践-练习2/Lenet5/model/lenet5_1.pth (torch, 251785 bytes, 10 tensors)

weight f4 [6, 1, 5, 5]
0.113010794 0.25196847 0.30882278 0.3741224 0.18801413 0.21108703 0.46221188 0.13858733
0.2994093 0.16564906 -0.0002409837 0.2851025 -0.06175857 -0.11785821 -0.0047142366 0.116388686
-0.28869957 -0.51365566 -0.20804095 -0.1190226 -0.17763515 -0.35913438 -0.22544359 -0.2562743
-0.318393 -0.15393765 -0.04299433 -0.25292185 -0.22294752 0.0858233 0.18336703 0.22236899
0.18125491 -0.09972478 0.12072359 0.31906107 0.11335645 0.39798692 0.45507362 0.21477702
0.20048021 0.17805067 0.4940412 0.3113288 0.4224982 -0.0763531 0.002434717 -0.06880387
-0.028211916 0.09362642 0.084454626 -0.3469593 -0.6239613 -0.049628228 0.11181132 -0.27765822
-0.5589304 -0.3542541 -0.05758986 0.11103216 -0.30650622 -0.35853675 -0.39748663 0.36224508
0.3034719 -0.27798507 -0.062071607 0.18284181 0.1913782 0.15023187 0.056092683 0.28615686
0.16658895 0.39310783 0.110946044 -0.09486464 0.34825742 0.3634962 0.3113925 0.12967572
-0.36919177 -0.07595153 0.15499891 -0.040589277 -0.25921687 -0.1985948 -0.4188649 -0.77215284
-0.62333816 -0.40482646 0.061912846 -0.23637775 -0.3842328 -0.11039704 0.05934074 0.19173968
0.106242426 0.39861605 0.17705236 0.16427056 -0.19261548 0.02968557 -0.0011245223 0.1247041
-0.050086033 0.26299596 0.24595405 0.031073416 0.24686077 0.41291788 0.0051524546 0.40674448
0.49961802 0.12765405 0.07181087 -0.116517715 0.12886168 0.29388654 0.25901568 -0.03424471
-0.34798476 -0.019465156 -0.3226174 -0.08540856 -0.37297004 -0.35679007 0.036156576 -0.06216658
0.015891919 -0.026884638 0.023130657 0.36664593 0.18048392 -0.02329184 0.27617255 0.18805607
-0.031551827 0.00069135334 0.36701998 0.27513298 -0.11968355 0.084412105 0.07743883 0.31757486
0.21985896 -0.12045083 -0.18501532 -0.080456994 -0.18447779 -0.20676279
00000000: 3472 e73d 0302 813e 051e 9e3e f98c bf3e
00000010: c786 403e 3327 583e 09a7 ec3e d6e9 0d3e
00000020: 2d4c 993e e89f 293e 92b0 7cb9 f4f8 913e
00000030: 8ef6 7cbd a55f f1bd e279 9abb 315d ee3d
00000040: 6ed0 93be f07e 03bf b008 55be 1fc2 f3bd
00000050: fde5 35be 76e0 b7be afda 66be 6336 83be
00000060: 6804 a3be d5a1 1dbe d31a 30bd f97e 81be
00000070: 5b4c 64be 20c4 af3d 91c4 3b3e b2b4 633e
00000080: e39a 393e 813c ccbd ee3d f73d f95b a33e
00000090: 6d27 e83d f1c4 cb3e 69ff e83e 82ee 5b3e
000000a0: af4a 4d3e ea52 363e f8f2 fc3e 7d66 9f3e
000000b0: af51 d83e 045f 9cbd c68f 1f3b 0be9 8cbd
000000c0: ad1c e7bc 35bf bf3d 8cf6 ac3d a6a4 b1be
000000d0: eebb 1fbf f846 4bbd 55fd e43d 3829 8ebe
000000e0: 1016 0fbf cb60 b5be 58e3 6bbd d464 e33d
000000f0: 62ee 9cbe 2192 b7be 5e83 cbbe 3078 b93e
00000100: ab60 9b3e 0f54 8ebe cc3e 7ebd e23a 3b3e
00000110: a6f8 433e 62d6 193e 71c1 653d 2783 923e
00000120: 4b96 2a3e 6e45 c93e ae37 e33d 6448 c2bd
00000130: cc4e b23e 2d1c ba3e d66e 9f3e b6c9 043e
00000140: b406 bdbe 7a8c 9bbd 09b8 1e3e f140 26bd
00000150: 13b8 84be 6f5c 4bbe 7675 d6be cfab 45bf
00000160: 1793 1fbf 6a45 cfbe 5398 7d3d 020d 72be
00000170: 29ba c4be d817 e2bd 470f 733d 6857 443e
00000180: a195 d93d 6717 cc3e 374d 353e 8b36 283e
00000190: fe3c 45be 272f f33c b564 93ba dd64 ff3d
000001a0: 0327 4dbd 68a7 863e 61db 7b3e ad8d fe3c
000001b0: 12c9 7c3e f969 d33e ecd5 a83b d040 d03e
000001c0: efcd ff3e beb7 023e 9411 933d d7a0 eebd
000001d0: 51f4 033e 4c78 963e b49d 843e 2e44 0cbd
000001e0: 0f2b b2be 6475 9fbc 1c2e a5be afea aebd
000001f0: eef5 bebe 30ad b6be eb18 143d 62a2 7ebd
00000200: c52f 823c 2c3d dcbc 817c bd3c 04b9 bb3e
00000210: c7d0 383e 87ce bebc 7d66 8d3e c591 403e
00000220: 7d3c 01bd f03b 353a 0bea bb3e 3bde 8c3e
00000230: a61c f5bd 41e0 ac3d 4098 9e3d 2c99 a23e
00000240: b522 613e edae f6bd a874 3dbe a3c6 a4bd
00000250: bfe7 3cbe a0b9 53be

bias f4 [6]
-0.015005129 0.068710975 0.06843738 0.027663408 -0.121223494 -0.35631767
00000000: 13d8 75bc 57b8 8c3d e628 8c3d 5f9e e23c
00000010: 0644 f8bd 456f b6be

weight f4 [16, 6, 5, 5]
0.1295618 0.09674955 -0.25780645 -0.037411638 -0.1894964 0.05840259 -0.08359168 -0.030487305
0.011798705 0.02503422 0.109270714 -0.24238889 -0.17914498 0.15606478 0.4027284 -0.1059509
-0.1094343 0.17091775 0.2904074 0.0744718 -0.028791398 0.18519782 0.13083622 -0.16078103
-0.17483948 -0.07968148 -0.05876744 -0.056973435 -0.04888771 0.08437365 -0.102600805 -0.028948365
0.011225478 0.14765759 0.0835061 -0.07180472 0.092507854 0.018997824 0.004202512 0.021612883
-0.050752796 -0.01120271 0.025472844 -0.041015062 -0.034642834 -0.2992416 -0.18782304 -0.2703134
-0.23567075 -0.12661813 -0.1943248 -0.048964083 0.10590175 0.051066406 0.11811767 -0.36294675
0.08478988 0.22113086 0.051852047 0.18645616 -0.094551384 0.13122727 0.21385825 -0.14303654
-0.13520716 -0.038984172 -0.09591995 -0.2993468 -0.2935159 -0.22223881 0.07793848 -0.31141716
-0.19237135 -0.1864845 0.352779 0.011627738 0.04834761 -0.046273347 0.096104 -0.0057232142
-0.21447024 -0.070037805 0.09595337 0.16715671 -0.048150886 0.061635803 0.12756863 0.07109273
-0.027735485 -0.20154142 0.057690717 -0.058744032 0.099145986 0.15679397 0.13644868 0.25233534
0.33699772 0.39011484 0.37731382 0.25109103 0.10718585 -0.2074117 -0.039718494 -0.08750493
0.00080452906 0.0020507665 -0.1543153 -0.023087159 -0.18933253 0.22298518 -0.2195442 -0.1941083
0.09684791 0.21847653 0.23895025 0.034146022 0.17099732 0.2591606 0.05013294 0.03483961
-0.08029003 -0.061573446 -0.23405409 -0.2981689 -0.0545401 0.0028729513 -0.048101317 -0.091928534
0.04149915 0.341779 -0.10332725 -0.008371339 -0.013414458 -0.02471203 0.44151405 -0.12196925
0.0776826 0.20955652 0.18087022 0.41858545 0.13014612 0.2739136 0.15607439 0.09307732
0.13875087 0.00627301 -0.13489749 -0.23905127 -0.13512762 -0.024916524 0.019406667 0.056454968
-0.040554132 -0.0043662526 -0.0126753505 0.14035152 0.20666957 0.057118695 0.08473797 0.18430004
-0.35721824 -0.27325147 -0.1409052 -0.06041995 -0.08236776 -0.15335512 -0.45973498 -0.5619362
-0.33653295 -0.0135583645 -0.016038893 -0.05858349 0.07155142 -0.048178814 -0.16514647 -0.093759075
0.08611319 0.010257336 0.049757753 0.15739098 -0.32865268 -0.23321915 -0.20216718 0.0049835034
0.098004706 -0.07665556 -0.19419251 -0.28283936 -0.12464222 0.11304129 0.08028148 -0.022116465
-0.2485517 -0.19460902 0.004107257 0.057062738 -0.102696136 -0.12134824 -0.15134913 -0.03336062
-0.08645718 0.083828464 0.22736196 0.23771854 0.22309063 -0.14369567 -0.15943678 -0.21269605
-0.01596221 0.08223896 0.031441 -0.027373357 -0.13491096 0.027519552 0.21358651 -0.17693122
-0.11735026 -0.11168809 0.09121536 0.27027962 0.012891363 -0.1359352 -0.26533133 0.104421735
0.04497013 -0.05227615 -0.05742093 0.21414131 -0.046337757 -0.20405093 0.4740263 0.12090242
0.07959362 -0.13888584 -0.31687775 0.24407192 0.51318145 0.5733337 0.37480313 0.19187477
-0.12908347 -0.18454796 0.026957389 0.1641491 -0.37138885 -0.14609149 -0.33011323 -0.052751765
0.21276668 0.05570086 0.09131768 0.084295586 -0.04610166 -0.06804609 0.067744456 -0.12261599
00000000: d9ab 043e a124 c63d 35ff 83be f23c 19bd
00000010: 580b 42be 8e37 6f3d 1d32 abbd 83c0 f9bc
00000020: 5b4f 413c 9114 cd3c 53c9 df3d cb34 78be
00000030: c871 37be 72cf 1f3e 6b32 ce3e c9fc d8bd
00000040: 171f e0bd 1005 2f3e 47b0 943e ac84 983d
00000050: f0db ebbc 7fa4 3d3e eef9 053e c8a3 24be
00000060: 1f09 33be 0b30 a3bd 21b6 70bd fa5c 69bd
00000070: 7b3e 48bd 18cc ac3d 5f20 d2bd 1f25 edbc
00000080: 11eb 373c 8d33 173e 3f05 ab3d 5a0e 93bd
00000090: c274 bd3d 53a1 9b3c 3ab5 893b 800d b13c
000000a0: 2ae2 4fbd 928b 37bc 6dac d03c 69ff 27bd
000000b0: a5e5 0dbd 3236 99be af54 40be 8566 8abe
000000c0: ac53 71be 2fa8 01be 15fd 46be 908e 48bd
000000d0: 04e3 d83d 022b 513d ade7 f13d 28d4 b9be
000000e0: 51a6 ad3d 2170 623e d062 543d 5dee 3e3e
000000f0: 28a4 c1bd 7160 063e a8fd 5a3e 2c78 12be
00000100: bf73 0abe dead 1fbd ae71 c4bd fc43 99be
00000110: b747 96be 9292 63be 369e 9f3d 1272 9fbe
00000120: fffc 44be cbf5 3ebe 739f b43e 4582 3e3c
00000130: 2508 463d 1f89 3dbd 2dd2 c43d cd89 bbbb
00000140: 169e 5bbe fb6f 8fbd 3383 c43d 212b 2b3e
00000150: dd39 45bd d375 7c3d 5aa1 023e 1199 913d
00000160: 8735 e3bc e060 4ebe 1a4d 6c3d 959d 70bd
00000170: 0d0d cb3d 998e 203e 34b9 0b3e 1932 813e
00000180: f78a ac3e 22bd c73e 472f c13e 018f 803e
00000190: 4184 db3d bc63 54be dcaf 22bd c935 b3bd
000001a0: 08e7 523a 2766 063b d404 1ebe 4821 bdbc
000001b0: 63e0 41be 3a56 643e 32d0 60be 54c4 46be
000001c0: 3258 c63d 50b8 5f3e 60af 743e b3dc 0b3d
000001d0: ec19 2f3e b3b0 843e 3358 4d3d fbb3 0e3d
000001e0: 196f a4bd 7034 7cbd e0ab 6fbe 98a9 98be
000001f0: 7165 5fbd 2048 3c3b e305 45bd 0745 bcbd
00000200: 03fb 293d a8fd ae3e 3d9d d3bd f127 09bc
00000210: 51c8 5bbc e270 cabc 210e e23e 04cb f9bd
00000220: 0e18 9f3d fc95 563e 0b36 393e d550 d63e
00000230: 0645 053e 673e 8c3e f7d1 1f3e 529f be3d
00000240: b514 0e3e d28d cd3b 9122 0abe dbc9 74be
00000250: e55e 0abe bd1d ccbc bbfa 9e3c 533d 673d
00000260: 171c 26bd c812 8fbb 46ac 4fbc 4fb8 0f3e
00000270: 30a1 533e 4bf5 693d 1a8b ad3d 26b9 3c3e
00000280: 4fe5 b6be 9ee7 8bbe 7449 10be e97a 77bd
00000290: 6eb0 a8bd 2009 1dbe 6262 ebbe 0ddb 0fbf
000002a0: 0c4e acbe e723 5ebc ff63 83bc 3ef5 6fbd
000002b0: 8d89 923d 2657 45bd 281c 29be c204 c0bd
000002c0: 1d5c b03d 630e 283c c9ce 4b3d 1a2b 213e
000002d0: 2a45 a8be 00d1 6ebe ea04 4fbe a84c a33b
000002e0: b1b6 c83d 97fd 9cbd 67da 46be 52d0 90be
000002f0: 6c44 ffbd 3182 e73d 9e6a a43d 972d b5bc
00000300: 5684 7ebe 9647 47be 2b96 863b 9eba 693d
00000310: 5a52 d2bd 6d85 f8bd 44fb 1abe 25a5 08bd
00000320: 7610 b1bd 42ae ab3d 93d1 683e 7d6c 733e
00000330: df71 643e f524 13be 6543 23be fecc 59be
00000340: 2ec3 82bc e66c a83d 47c8 003d 173e e0bc
00000350: 1926 0abe af70 e13c 6cb6 5a3e 752d 35be
00000360: 5555 f0bd babc e4bd 1ecf ba3d 1762 8a3e
00000370: 4c36 533c 9932 0bbe 82d9 87be 10db d53d
00000380: 9932 383d 841f 56bd 3632 6bbd dc47 5b3e
00000390: a9cc 3dbd baf2 50be 93b3 f23e b09b f73d
000003a0: fb01 a33d 1738 0ebe cd3d a2be fded 793e
000003b0: dc5f 033f ffc5 123f 32e6 bf3e d27a 443e
000003c0: 752e 04be 24fa 3cbe bed5 dc3c b416 283e
000003d0: ae26 bebe 0299 15be 9a04 a9be 3c12 58bd
000003e0: 82df 593e 9626 643d c404 bb3d 2aa3 ac3d
000003f0: 18d5 3cbd c05b 8bbd 9bbd 8a3d 181e fbbd

bias f4 [16]
-0.2102726 -0.06763318 -0.17717014 -0.06024292 0.028385594 -0.13578166 0.013244598 -0.13045657
-0.1250824 -0.11773885 -0.23352665 -0.1168994 -0.21589348 -0.14467448 -0.10771308 -0.048379697
00000000: b351 57be 4483 8abd 176c 35be 48c1 76bd
00000010: e888 e83c 590a 0bbe dfff 583c 6896 05be
00000020: 9a15 00be 1121 f1bd 9c21 6fbe f468 efbd
00000030: 2e13 5dbe 8c25 14be ad98 dcbd ca29 46bd

weight f4 [120, 400]
-0.08210863 0.23933657 0.40801024 0.08786071 -0.049275544 0.09140081 0.06767818 -0.10047571
0.140822 0.041846465 0.113453336 -0.065092966 0.1193135 0.09138059 -0.06864587 0.28866202
-0.010865521 0.15369613 0.07964255 -0.0882274 0.16050982 0.002537339 0.31776616 0.06626927
-0.11065017 -0.16661741 -0.055924032 0.07800793 -0.21932963 0.066032976 -0.004993585 0.022628471
0.025891513 -0.066117294 0.1397694 -0.009144081 0.12501527 -0.076081306 0.08107156 0.28411844
0.07562004 0.085340165 -0.09968643 -0.09911055 0.15521288 0.19926444 0.22567558 -0.21144128
-0.07948339 0.08060724 0.026243556 -0.28071576 -0.060546596 0.023379117 0.12530455 -0.2132966
0.05392868 0.22305919 0.08594099 0.060883574 0.3084601 0.104022905 0.20630932 -0.057512123
-0.3153153 0.129059 0.33748466 0.030764334 0.06056102 -0.1295665 -0.26881573 -0.13307427
-0.08262372 0.16080731 0.24639402 -0.0052064634 -0.062892444 -0.1036954 -0.02150913 -0.09496586
0.022941787 0.04624587 0.13261062 0.06290272 -0.08028164 0.0058852644 -0.056284145 -0.045136422
-0.06258796 -0.049185086 -0.09220853 0.10383543 0.025651455 -0.39255628 -0.20699644 -0.20758988
-0.101149686 -0.02857458 -0.04687155 0.10975904 0.059593033 0.14232662 0.14720312 0.019838974
-0.027896194 0.17178088 0.15155616 0.34766212 0.22101046 -0.11280254 0.0734816 0.32552266
-0.026817849 -0.03322744 0.022783585 -0.020417066 -0.00768021 -0.47797877 -0.2722376 0.008094581
0.24983534 0.15332508 -0.01000595 0.21634993 0.18630736 0.092437014 0.024400136 -0.051751107
-0.07241892 -0.041540693 -0.08238492 0.080969416 -0.07623267 -0.14494812 0.092782386 0.1482812
-0.08136576 0.109132536 0.06852405 0.26745647 0.13635051 -0.023935169 0.28659517 -0.03603311
0.22619559 -0.02166976 0.17226146 0.2996299 -0.12977402 -0.35722786 -0.0457465 0.14151055
-0.13716796 0.03825494 0.1758915 -0.30369195 0.04496401 -0.07252365 -0.08653337 0.0036836076
-0.2013873 0.18571605 -0.018523315 -0.07934145 0.083898336 -0.24260789 0.18398769 -0.122824654
-0.20388584 0.3031718 0.07762807 -0.36381364 -0.33087185 0.10540358 0.14835304 0.008405814
0.16226602 0.34420604 0.25213706 0.12526691 0.18030126 0.22297236 0.22323263 0.34847018
0.12012182 0.22922987 -0.05017534 -0.12433382 0.19972882 0.045725778 0.005541815 -0.098385505
-0.15338673 -0.087179184 0.02795664 0.041410875 0.2923439 0.34387305 -0.14277934 -0.24567132
0.12512283 -0.02761914 0.04801392 0.043563675 0.085998036 0.0627591 0.09115243 0.08166922
-0.041689076 -0.025684372 0.031083113 -0.06224978 0.08042621 0.21375746 0.16350166 -0.18963088
-0.21078083 0.082656935 0.081464924 0.035178076 -0.1465103 -0.27199945 -0.20359953 -0.2136758
-0.28269997 0.078836456 0.07962381 0.039350025 -0.022792382 0.054186866 0.08505069 -0.029815964
0.10519935 0.031886473 -0.2724045 0.05811625 0.17009465 0.024218427 -0.017707683 -0.15333441
0.26918897 0.08621276 0.008223447 -0.027697971 -0.15838213 0.08960463 -0.12539646 -0.1970419
-0.18450981 -0.094791524 -0.04228414 -0.040211804 -0.27581438 -0.06398378 -0.19834393 0.07499357
00000000: 9228 a8bd a514 753e b8e6 d03e 51f0 b33d
00000010: 27d5 49bd 5930 bb3d dc9a 8a3d 36c6 cdbd
00000020: a433 103e 3367 2b3d 395a e83d 764f 85bd
00000030: a35a f43d bf25 bb3d 3596 8cbd 82cb 933e
00000040: 4c05 32bc 8562 1d3e a21b a33d 91b0 b4bd
00000050: b05c 243e 7c49 263b 3fb2 a23e 2fb8 873d
00000060: 8e9c e2bd c19d 2abe 9910 65bd 9fc2 9f3d
00000070: f297 60be 4c3c 873d 3aa1 a3bb 585f b93c
00000080: 701a d43c 8168 87bd b61f 0f3e 0ed1 15bc
00000090: 0104 003e 84d0 9bbd d908 a63d f977 913e
000000a0: aede 9a3d d3c6 ae3d 6628 ccbd 79fa cabd
000000b0: 20f0 1e3e fa0b 4c3e 8017 673e 1084 58be
000000c0: 30c8 a2bd 6915 a53d bafc d63c fab9 8fbe
000000d0: b5ff 77bd 9085 bf3c d64f 003e 6d6a 5abe
000000e0: 52e4 5c3d a169 643e d401 b03d 0e61 793d
000000f0: 7bee 9d3e f609 d53d c042 533e d591 6bbd
00000100: 0271 a1be 0b28 043e caca ac3e 7c05 fc3c
00000110: d50e 783d 15ad 04be 37a2 89be 9f44 08be
00000120: a036 a9bd acaa 243e b74e 7c3e fb9a aabb
00000130: c1cd 80bd 415e d4bd ea33 b0bc 767d c2bd
00000140: 6af0 bb3c 4f6c 3d3d 14cb 073e 24d3 803d
00000150: b36a a4bd 2dd9 c03b 348a 66bd f8e0 38bd
00000160: 1e2e 80bd 4d76 49bd d3d7 bcbd aca7 d43d
00000170: 0023 d23c 23fd c8be e0f6 53be 7192 54be
00000180: 9127 cfbd 3d15 eabc 62fc 3fbd 59c9 e03d
00000190: d317 743d 12be 113e 6abc 163e 5885 a23c
000001a0: 8f86 e4bc 54e7 2f3e 8a31 1b3e c500 b23e
000001b0: 9150 623e 0505 e7bd 857d 963d e8aa a63e
000001c0: 1bb1 dbbc 7f19 08bd a4a4 ba3c b141 a7bc
000001d0: 45aa fbbb a2b9 f4be ba62 8bbe 229f 043c
000001e0: d6d4 7f3e 4001 1d3e ffef 23bc d68a 5d3e
000001f0: 5bc7 3e3e 9e4f bd3d cbe2 c73c f8f8 53bd
00000200: 5f50 94bd 9326 2abd 6db9 a8bd 4bd3 a53d
00000210: e01f 9cbd 486d 14be b104 be3d 07d7 173e
00000220: 17a3 a6bd e180 df3d 5656 8c3d 0ef0 883e
00000230: 789f 0b3e b013 c4bc 9abc 923e 7497 13bd
00000240: d19f 673e c884 b1bc 4f65 303e 1769 993e
00000250: 7be3 04be 92e6 b6be af60 3bbd 24e8 103e
00000260: c275 0cbe 36b1 1c3d e71c 343e 837d 9bbe
00000270: 2f2c 383d 4887 94bd 6838 b1bd ae68 713b
00000280: 7938 4ebe 592c 3e3e 35be 97bc c57d a2bd
00000290: e4d2 ab3d 346e 78be 4567 3c3e 7e8b fbbd
000002a0: 73c7 50be 5639 9b3e 77fb 9e3d c845 babe
000002b0: 0968 a9be d5dd d73d dce9 173e 8ab8 093c
000002c0: 1029 263e c63b b03e 1c18 813e f845 003e
000002d0: e5a0 383e de52 643e 1897 643e af6a b23e
000002e0: 6e02 f63d 3cbb 6a3e a884 4dbd bba2 febd
000002f0: b685 4c3e f44a 3b3d 1d98 b53b 577e c9bd
00000300: 6911 1dbe 008b b2bd 5305 e53c 739e 293d
00000310: 1aae 953e 2110 b03e bf34 12be 4391 7bbe
00000320: 3320 003e 8941 e2bc 3faa 443d d36f 323d
00000330: bd1f b03d d887 803d 20ae ba3d 3142 a73d
00000340: 2ac2 2abd 0868 d2bc 03a2 fe3c a0f9 7ebd
00000350: 7fb6 a43d 3ce3 5a3e fb6c 273e 992e 42be
00000360: eed6 57be 0a48 a93d 15d7 a63d e316 103d
00000370: cc06 16be 8343 8bbe 657c 50be d4cd 5abe
00000380: 0dbe 90be 0275 a13d cf11 a33d 7e2d 213d
00000390: 17b7 babc 0cf3 5d3d 0e2f ae3d 9c40 f4bc
000003a0: c272 d73d 649b 023d 9a78 8bbe 4e0b 6e3d
000003b0: 4b2d 2e3e b965 c63c b40f 91bc b203 1dbe
000003c0: 23d3 893e 5190 b03d a3bb 063c dbe6 e2bc
000003d0: ed2e 22be a282 b73d ee67 00be 5ac5 49be
000003e0: 24f0 3cbe 0f22 c2bd 2232 2dbd 22b5 24bd
000003f0: 8b37 8dbe ee09 83bd ac1a 4bbe 3b96 993d

bias f4 [120]
0.1263428 -0.01963255 0.013945285 -0.14340791 -0.031606317 -0.010421601 -0.05686333 0.034870874
-0.026809433 0.030712154 0.015424516 -0.056442108 -0.023562675 0.07336064 0.056343976 -0.079531915
-0.07297245 0.012043167 -0.126634 0.04040264 -0.07648261 -0.029816264 0.048679896 0.08487524
-0.06504062 0.010378469 0.09583894 0.021127477 0.029640246 -0.08003031 0.01059277 0.12286098
-0.03232484 -0.031668022 0.0671955 0.05880809 -0.120886065 -0.034316447 0.01382839 0.0051649986
0.013076577 -0.11517234 0.061227802 -0.038913652 -0.02147168 -0.005780608 0.010822334 -0.096846625
0.075813994 -0.13481718 0.023578703 -0.0413608 0.006160876 -0.04512694 0.10561032 0.015811156
-0.063706234 0.039426316 -0.10705297 0.03330668 -0.06627089 -0.024028797 -0.020020733 -0.0961209
-0.10147907 -0.0033739586 -0.058537763 0.13790765 0.029636284 -0.0016260955 -0.031144522 -0.02534987
-0.039467297 0.014296397 0.10955858 -0.05099449 0.15995745 -0.012927991 0.004686717 0.040537257
-0.13437162 0.062771246 0.10023808 0.021972934 0.049634103 -0.06318522 -0.07798201 -0.12530364
-0.011553736 0.002085033 -0.02053259 0.00940783 -0.14675118 -0.094350055 0.0098557845 -0.061115462
-0.018316276 0.042392675 0.0147854155 0.038008336 0.004754154 0.029169178 -0.075963825 0.03851386
-0.061248757 -0.004591845 -0.010718096 -0.02694666 -0.06678315 -0.067148745 0.07477781 -0.10812541
-0.113752045 -0.08923414 0.06328443 -0.06387332 -0.074976936 -0.054690458 -0.044796616 0.053486243
00000000: 0260 013e 71d4 a0bc c47a 643c 86d9 12be
00000010: a075 01bd 5dbf 2abc 86e9 68bd c3d4 0e3d
00000020: 759f dbbc 0e98 fb3c 1cb7 7c3c d72f 67bd
00000030: 8306 c1bc 1a3e 963d f1c8 663d a1e1 a2bd
00000040: 9472 95bd b450 453c 58ac 01be 3d7d 253d
00000050: eaa2 9cbd 3d41 f4bc 9264 473d 12d3 ad3d
00000060: 0434 85bd 740a 2a3c 3547 c43d 8813 ad3c
00000070: 1ad0 f23c eee6 a3bd 4c8d 2d3c 8a9e fb3d
00000080: 0d67 04bd 54b6 01bd cb9d 893d c0e0 703d
00000090: 1d93 f7bd 678f 0cbd 7990 623c 263f a93b
000000a0: 243f 563c 7adf ebbd 01ca 7a3d ec63 1fbd
000000b0: 60e5 afbc 416b bdbb 2950 313c 8657 c6bd
000000c0: 5e44 9b3d 840d 0abe 2028 c13c f169 29bd
000000d0: 2ce1 c93b 07d7 38bd 394a d83d 6686 813c
000000e0: 6a78 82bd 7d7d 213d 963e dbbd 966c 083d
000000f0: 08b9 87bd 0ad8 c4bc 8502 a4bc 09db c4bd
00000100: 42d4 cfbd a21d 5dbb 4bc5 6fbd aa37 0d3e
00000110: cbc7 f23c b622 d5ba cc22 ffbc 88aa cfbc
00000120: 76a8 21bd 6f3b 6a3c 4060 e03d 99df 50bd
00000130: e3cb 233e edcf 53bc 0893 993b 650a 263d
00000140: b798 09be 368e 803d 9f49 cd3d 9500 b43c
00000150: 214d 4b3d 4167 81bd 08b5 9fbd 994f 00be
00000160: e24b 3dbc 0da5 083b f633 a8bc 4d23 1a3c
00000170: f145 16be 9a3a c1bd 287a 213c 3554 7abd
00000180: 040c 96bc f1a3 2d3d 873e 723c a1ae 1b3d
00000190: bcc8 9b3b 33f4 ee3c ec92 9bbd b6c0 1d3d
000001a0: fadf 7abd 3077 96bb f49a 2fbc 3ebf dcbc
000001b0: 9bc5 88bd 4885 89bd 1c25 993d db70 ddbd
000001c0: d5f6 e8bd 64c0 b6bd 449b 813d 04d0 82bd
000001d0: 828d 99bd 1a03 60bd a87c 37bd 6414 5b3d

weight f4 [84, 120]
0.099942766 0.17132562 -0.23492904 0.46974438 -0.02866829 0.08435653 0.09765728 0.20106195
0.36398456 -0.58681303 0.47937918 -0.09607419 0.033516925 -0.14678827 0.10606103 0.6184185
0.16289614 -0.074188285 0.1411053 -0.46650198 -0.0028845612 0.039745763 0.14297006 -0.03893692
0.5538875 -0.018171297 -0.3004521 0.054230493 0.58757347 0.0952105 -0.37012845 -0.026180994
0.034799248 -0.043252546 -0.28134805 -0.42739165 -0.19360739 -0.08140523 -0.2267327 -0.29579654
-0.077078685 -0.19391802 0.08770339 -0.2581188 -0.116550304 0.18416789 -0.014879868 -1.913411e-05
-0.410115 0.16366695 0.10644638 -0.32196718 -0.26842204 -0.056331735 -0.050099663 0.33007848
0.05846142 0.05235438 -0.03533359 -0.50817126 -0.045464862 -0.07135156 0.14565723 0.09183266
-0.006767794 -0.0830527 -0.6072265 -0.034819484 0.022394741 0.39413434 0.072703615 -0.3682573
0.022250606 -0.085674204 -0.4990098 0.050741125 -0.6026078 -0.0014978629 -0.35243922 0.41128486
0.047838084 -0.11119788 -0.053440165 0.14954412 -0.020278296 0.024464514 0.045429137 0.26733008
0.39227176 0.4846475 -0.15536727 -0.38610208 0.12478272 0.26190358 -0.35320294 0.06528755
-0.03501661 -0.436969 -0.3154465 0.32292688 0.2041049 0.16601166 -0.048173085 -0.08260206
-0.1455373 0.022766951 -0.18701236 0.031326536 -0.11736509 -0.41558525 0.14531927 0.14578974
-0.07477057 -0.3624256 0.3685656 0.3285944 0.124252215 0.40985337 0.38327467 -0.25170693
0.15803011 0.31626382 -0.25391075 0.06662477 0.51659757 -0.20419306 0.0008072935 -0.5551197
0.19464774 -0.19123241 -0.075481966 -0.24798515 0.048494555 0.066789076 0.070434086 -0.2824072
0.25691715 -0.12136266 0.557174 0.0883418 -0.08237002 -0.19860533 -0.107190646 -0.35451418
0.0042022658 -0.14576155 -0.1707776 -0.8648861 0.07026368 -0.15356228 -0.38303396 0.24301796
-0.06885179 -0.04880329 0.34707028 -0.35193062 0.12264985 0.05408871 0.20264441 -0.31861302
0.44739643 0.049926843 -0.24587269 0.29328457 -0.14751938 0.14011009 -0.31425068 0.14804189
-0.4874015 0.31744945 -0.17925951 -0.56302017 0.026404206 0.0997637 -0.5276631 0.35836962
0.14111558 0.014456649 -0.22578296 0.013755053 0.050172597 -0.07449417 0.07331923 0.40472513
0.48518816 0.34631646 -0.01170164 0.22433989 -0.8418878 -0.13399468 -0.0849187 -0.17111741
0.0009316831 -0.5366206 -0.4153079 0.14528182 -0.40093812 0.27620777 0.084874935 -0.0068361238
0.039838206 -0.5254529 -0.30069995 -0.39665058 -0.34693182 0.26880115 -0.3600485 -0.13730428
0.406066 -0.11667123 0.062402844 -0.23549947 0.08573352 0.11127716 0.063498236 0.020944983
0.034482762 -0.04449397 0.051444434 -0.26562506 -0.035487752 0.22721694 0.2780451 0.055973426
-0.12779213 -0.26939335 0.06553236 0.110811725 -0.43861648 -0.5903346 -0.10976918 -0.1089955
-0.015768357 -0.080839865 0.22794823 -0.34823984 0.31444475 -0.019686101 -0.2238436 0.25664648
-0.25807425 -0.13211691 -0.4767795 -0.6703891 -0.19223166 -0.12857303 0.24715142 -0.36965916
0.18665881 0.23442492 -0.14575787 0.07419147 0.25179097 -0.21352975 -0.016746236 -0.63127124
00000000: cbae cc3d fc6f 2f3e 3d91 70be 5682 f03e
00000010: c3d9 eabc 1ec3 ac3d 8a00 c83d 2fe3 4d3e
00000020: 2f5c ba3e 6139 16bf 3071 f53e 8cc2 c4bd
00000030: 0b49 093d aa4f 16be 8636 d93d ad50 1e3f
00000040: 3fce 263e 07f0 97bd e87d 103e 59d9 eebe
00000050: e80a 3dbb 74cc 223d be66 123e 527c 1fbd
00000060: 92cb 0d3f f9db 94bc dcd4 99be cb20 5e3d
00000070: 376b 163f b9fd c23d 7a81 bdbe 8679 d6bc
00000080: a889 0e3d 9529 31bd da0c 90be 14d3 dabe
00000090: 0441 46be c9b7 a6bd 9e2c 68be a572 97be
000000a0: 6edb 9dbd 7292 46be d69d b33d 2628 84be
000000b0: edb1 eebd 8296 3c3e b1ca 73bc 3082 a0b7
000000c0: 98fa d1be 4f98 273e 8f00 da3d e2d8 a4be
000000d0: 9d6e 89be 1bbc 66bd 4e35 4dbd 0c00 a93e
000000e0: 3e75 6f3d 8c71 563d f4b9 10bd 8317 02bf
000000f0: 5d39 3abd c420 92bd 2b27 153e c312 bc3d
00000100: 5fc4 ddbb 8917 aabd 3273 1bbf e09e 0ebd
00000110: 2d75 b73c facb c93e a2e5 943d 398c bcbe
00000120: e746 b63c f575 afbd 367e ffbe edd5 4f3d
00000130: 8144 1abf f053 c4ba ea72 b4be ee93 d23e
00000140: def1 433d b7bb e3bd 13e4 5abd 1822 193e
00000150: ab1e a6bc ce69 c83c e713 3a3d 7ddf 883e
00000160: d8d7 c83e b823 f83e 9918 1fbe 2caf c5be
00000170: 158e ff3d 3a18 863e 04d7 b4be 7bb5 853d
00000180: 946d 0fbd 67ba dfbe 3482 a1be ac56 a53e
00000190: e000 513e f6fe 293e 2451 45bd 452b a9bd
000001a0: bb07 15be c281 ba3c 2b80 3fbe 4150 003d
000001b0: 1c5d f0bd 97c7 d4be 93ce 143e e849 153e
000001c0: 5021 99bd d98f b9be a1b4 bc3e 863d a83e
000001d0: f277 fe3d 4dd8 d13e 943c c43e bbdf 80be
000001e0: a5d2 213e 55ed a13e 9700 82be 9172 883d
000001f0: bd3f 043f fc17 51be 8da0 533a 531c 0ebf
00000200: bd51 473e 6ed2 43be 4a96 9abd d2ef 7dbe
00000210: 3aa2 463d b6c8 883d bf3f 903d ad97 90be
00000220: a58a 833e fc8c f8bd f5a2 0e3f 8cec b43d
00000230: 9db1 a8bd 325f 4bbe c586 dbbd e282 b5be
00000240: 29b3 893b 8442 15be 53e0 2ebe 2d69 5dbf
00000250: 67e6 8f3d 6e3f 1dbe 071d c4be b3d9 783e
00000260: 2b02 8dbd f5e5 47bd 32b3 b13e 4030 b4be
00000270: d82f fb3d 208c 5d3d 0482 4f3e 3f21 a3be
00000280: 2511 e53e 1780 4c3d 0dc6 7bbe 6529 963e
00000290: 520f 17be 0579 0f3e 77e5 a0be 4b98 173e
000002a0: b08c f9be bc88 a23e ce8f 37be 1722 10bf
000002b0: a24d d83c e950 cc3d ee14 07bf 397c b73e
000002c0: 9a80 103e 95db 6c3c a633 67be e05c 613c
000002d0: c881 4d3d 6690 98bd 6428 963d 2238 cf3e
000002e0: 956a f83e 6450 b13e 3cb8 3fbc 5bb9 653e
000002f0: f585 57bf e735 09be dbe9 adbd 6739 2fbe
00000300: 323c 743a f85f 09bf 3da3 d4be c2c4 143e
00000310: c347 cdbe 1b6b 8d3e e9d2 ad3d 9001 e0bb
00000320: 632d 233d 1584 06bf 58f5 99be c915 cbbe
00000330: 0ca1 b1be 4ea0 893e 4758 b8be 7e99 0cbe
00000340: e2e7 cf3e 53f1 eebd 209a 7f3d c626 71be
00000350: 0e95 af3d 48e5 e33d 5d0b 823d d094 ab3c
00000360: cc3d 0d3d 4f3f 36bd 66b7 523d 0200 88be
00000370: 9b5b 11bd 8fab 683e ed5b 8e3e 6444 653d
00000380: f1db 02be eded 89be d435 863d 42f1 e23d
00000390: 5792 e0be 2b20 17bf aace e0bd 0839 dfbd
000003a0: a42c 81bc 5f8f a5bd 436b 693e 7e4c b2be
000003b0: e7fe a03e bf44 a1bc 4237 65be 2b67 833e
000003c0: 4f22 84be a849 07be 711c f4be 9f9e 2bbf
000003d0: 60d8 44be a6a8 03be 4315 7d3e f743 bdbe
000003e0: 7d23 3f3e 160d 703e 8d41 15be b3f1 973d
000003f0: bfea 803e 8ba7 5abe 672f 89bc fe9a 21bf

bias f4 [84]
-0.010158548 0.073347405 4.026541e-05 -0.03343633 0.096803375 -0.06332426 0.018252179 0.13174757
0.011768603 -0.066548735 -0.022546386 0.02729615 -0.08451204 0.07177652 -0.0002179729 -0.1302511
-0.028377175 -0.048183147 0.032840125 0.010922824 0.007135555 -0.035523824 0.090749115 -0.039760258
-0.02754073 0.060821947 -0.03419373 0.0782036 -0.025716996 -0.020686379 -0.01217178 0.11153279
0.008643535 -0.069408156 -0.045065623 -0.044601973 0.03064557 0.0029444727 0.030196695 -0.0055018845
0.112465814 -0.010035089 0.04670075 0.051971074 -0.0017600395 0.099406615 -0.10625553 0.07646552
0.106480256 -0.091579005 0.022400418 -0.0625067 -0.0010732515 0.067384675 0.03570498 0.0733403
-0.019823255 0.01695895 0.0005503908 0.07728114 -0.0070356806 0.118559584 0.07897185 0.044384085
-0.0749245 -7.341782e-05 0.028417256 0.038612112 -0.059519537 -0.11487822 -0.037777297 0.0140284775
-0.022507375 0.009379092 -0.091889046 0.06582419 -0.0983682 0.1056981 0.07126665 -0.011236032
-0.074716225 -0.031345002 -0.03992203 -0.064407855
00000000: 0a70 26bc 2a37 963d a8e2 2838 88f4 08bd
00000010: d940 c63d 26b0 81bd 9885 953c d6e8 063e
00000020: 19d1 403c b44a 88bd 33b3 b8bc 2d9c df3c
00000030: a614 adbd 91ff 923d a88f 64b9 8b60 05be
00000040: 4077 e8bc b15b 45bd 5e83 063d a5f5 323c
00000050: 60d1 e93b 6e81 11bd acda b93d a7db 22bd
00000060: 199d e1bc 6f20 793d ba0e 0cbd 3629 a03d
00000070: 73ac d2bc 7b76 a9bc 256c 47bc 4e6b e43d
00000080: 9d9d 0d3c dd25 8ebd bb96 38bd 8fb0 36bd
00000090: 6b0c fb3c 0ef8 403b 0f5f f73c 2749 b4bb
000000a0: 7a54 e63d 376a 24bc 4949 3f3d 9fdf 543d
000000b0: 20b1 e6ba b295 cb3d 809c d9bd f499 9c3d
000000c0: 5212 da3d c68d bbbd 1581 b73c 8303 80bd
000000d0: 58ac 8cba fa00 8a3d 633f 123d 7033 963d
000000e0: 6164 a2bc 7fed 8a3c 1a48 103a 9345 9e3d
000000f0: 918b e6bb 5ecf f23d febb a13d 16cc 353d
00000100: 0472 99bd e4f7 99b8 4ecb e83c bc27 1e3d
00000110: c2ca 73bd 4645 ebbd 5ebc 1abd b3d7 653c
00000120: 6361 b8bc c3aa 193c 5330 bcbd d5ce 863d
00000130: 4475 c9bd 3f78 d83d 40f4 913d 5517 38bc
00000140: d204 99bd 9e63 00bd 4885 23bd 44e8 83bd

weight f4 [10, 84]
0.317699 -0.59692097 -0.41797513 0.18574022 0.32203534 -0.45822254 0.3668038 -0.041912314
-0.81315297 -0.26078302 -0.6141155 0.4795471 -0.4475068 -0.74358076 0.09238041 -0.42948827
-0.042717297 0.36945027 -0.3058855 -0.49733642 0.41743547 0.3307715 -0.7012349 0.39843142
-0.11281607 0.31162035 -0.6246799 0.11861802 -0.4894356 0.15138768 0.36934674 -0.41255438
-0.6402297 0.43558308 0.35506314 -0.08136677 0.38023365 0.31075048 0.21261185 -0.28212884
-0.27085578 0.29661638 0.40515333 -0.22230905 -0.53110963 -0.37870324 0.3363372 0.28793764
-0.79140997 0.36579013 -0.6777833 -0.6999159 -0.6053969 -0.8508318 -0.30080652 -0.5447034
0.31982008 -0.38006604 0.55415165 -0.6547438 -0.6594665 -0.20501971 -0.5642972 -0.22132693
0.19785728 -0.5013365 0.37058604 -0.0054163593 -0.31162786 0.2930632 0.37976828 0.2471921
0.2640205 0.11870173 0.46630934 -0.3702179 0.32776716 0.6511478 -0.35307732 -0.73924047
0.1805535 -0.5794661 0.46728492 0.052600954 -0.30086783 0.07752612 -0.4130288 -0.49448052
-0.35055304 -0.6868414 0.29373947 -0.29237664 -0.5823857 -0.30853856 0.20112851 0.366308
0.34946817 0.22478136 0.30443376 0.43207374 0.29776692 -0.36945271 0.3945003 0.47342125
-0.2638344 -0.2559804 0.22846392 -0.38154262 0.56806153 0.29709688 0.25601688 -0.44199115
0.3386112 -0.54787654 -0.25887036 0.38190514 -0.219892 0.5466697 -0.5226868 -0.5787829
-0.5492208 0.29516777 -0.52550024 0.3916201 0.54007214 -0.43760967 -0.43831906 0.39926216
0.21409245 -0.6163586 -0.5986339 -0.43129778 0.18737812 -0.42278215 0.00311879 -0.7288304
0.47898233 0.15082751 0.23888779 0.030006902 -0.16983941 0.38766453 -0.42859957 0.2277864
0.1713383 0.4160925 0.5028859 -0.4393292 -0.4837231 -0.0029846798 -0.32580864 0.06727202
0.365533 -0.64968324 -0.48623288 -0.44519478 0.16388269 -0.2835968 -0.46709618 0.35647023
-0.48739216 -0.004792546 0.32628635 -0.37169945 -0.103290394 0.3662278 -0.14112672 -0.18879972
-0.8208102 0.099222355 0.4004879 -0.672813 -0.18205737 0.42943382 0.38032526 0.20979978
-0.59350276 -0.41412902 -0.5080274 -0.6688452 0.24640907 -0.6983193 0.42149922 -0.6508953
0.15477328 -0.695702 0.47493762 -0.37468064 -0.23214865 0.18058999 0.25598496 0.24675131
0.20311919 0.14168978 -0.5962344 -0.45931542 -0.7111189 -0.20372142 -0.47081298 -0.31762138
-0.4120055 -0.23630297 -0.7566436 -0.017112363 0.35623085 0.26943365 -0.3192798 -0.3993216
0.03099604 -0.63248754 0.40025792 0.635327 0.4222534 -0.11848402 0.28412336 -0.68592995
0.29317483 -0.51767457 -0.13135007 -0.485585 -0.6627833 0.29168054 -0.59655297 0.32000792
0.108262874 -0.5993533 0.5702667 0.118899055 -0.8337771 0.5585023 -0.6495748 0.39796788
0.1620263 0.48410034 -0.13716419 0.14803293 -0.53103733 0.09086227 0.58806324 -0.056229476
0.1013018 -0.22651048 0.53805596 0.16869994 0.2949908 -0.34790742 0.32831636 0.35291174
0.118972 -0.04345806 0.4932969 -0.49932352 -0.50722283 0.30681738 0.44569424 0.42404872
00000000: 71a9 a23e d0cf 18bf d600 d6be af32 3e3e
00000010: d1e1 a43e 259c eabe b5cd bb3e 3fac 2bbd
00000020: cb2a 50bf 5a85 85be ac36 1dbf 3387 f53e
00000030: 9c1f e5be 4f5b 3ebf f131 bd3d e3e5 dbbe
00000040: 55f8 2ebd 9628 bd3e 069d 9cbe e1a2 febe
00000050: 1aba d53e e25a a93e 2184 33bf 34ff cb3e
00000060: 1d0c e7bd b48c 9f3e 06eb 1fbf 01ee f23d
00000070: 4e97 fabe 5f05 1b3e 041b bd3e 543a d3be
00000080: 18e6 23bf bf04 df3e d6ca b53e 9fa3 a6bd
00000090: fcad c23e b01a 9f3e ecb6 593e 3173 90be
000000a0: 9cad 8abe 1ade 973e 4270 cf3e fca4 63be
000000b0: cdf6 07bf 64e5 c1be 6434 ac3e 906c 933e
000000c0: d899 4abf d848 bb3e 3583 2dbf b02d 33bf
000000d0: 4bfb 1abf 1dd0 59bf 5003 9abe af71 0bbf
000000e0: 75bf a33e 0498 c2be e2dc 0d3f 4a9d 27bf
000000f0: ccd2 28bf b0f0 51be c875 10bf 87a3 62be
00000100: 199b 4a3e 9757 00bf 74bd bd3e b77b b1bb
00000110: b08d 9fbe 610c 963e fd70 c23e ed1f 7d3e
00000120: b22d 873e e519 f33d 19c0 ee3e 338d bdbe
00000130: 19d1 a73e 9fb1 263f 8dc6 b4be dd3e 3dbf
00000140: 04e3 383e e457 14bf f83f ef3e 1974 573d
00000150: 590b 9abe 04c6 9e3d 8378 d3be 8d2c fdbe
00000160: b07b b3be d7d4 2fbf 0565 963e 64b2 95be
00000170: 3b17 15bf c4f8 9dbe a2f4 4d3e b98c bb3e
00000180: 7eed b23e 162d 663e bede 9b3e c538 dd3e
00000190: e874 983e e828 bdbe f1fb c93e 4564 f23e
000001a0: 4d15 87be dd0f 83be 72f2 693e 8e59 c3be
000001b0: 7b6c 113f 151d 983e a514 833e aa4c e2be
000001c0: 725e ad3e a341 0cbf a88a 84be 1289 c33e
000001d0: 5e2b 61be 8cf2 0b3f cdce 05bf 1e2b 14bf
000001e0: bc99 0cbf 3b20 973e 2f87 06bf 6e82 c83e
000001f0: 2b42 0a3f 600e e0be 5b6b e0be 176c cc3e
00000200: 0d3b 5b3e adc9 1dbf 1240 19bf 10d3 dcbe
00000210: 0de0 3f3e e776 d8be 9d64 4c3b a194 3abf
00000220: 2c3d f53e 8772 1a3e 009f 743e 09d1 f53c
00000230: 62ea 2dbe f77b c63e 6771 dbbe d740 693e
00000240: 4f73 2f3e 130a d53e 21bd 003f c2ef e0be
00000250: 8eaa f7be 9e9a 43bb 64d0 a6be eac5 893d
00000260: 2427 bb3e a451 26bf 84f3 f8be 92f0 e3be
00000270: ddd0 273e 9a33 91be 3b27 efbe 4483 b63e
00000280: 778b f9be ca0a 9dbb 010f a73e 644f bebe
00000290: ea89 d3bd 3682 bb3e 8683 10be b754 41be
000002a0: 9e20 52bf 1735 cb3d c00c cd3e 793d 2cbf
000002b0: 3f6d 3abe c0de db3e feb9 c23e c1d5 563e
000002c0: ccef 17bf b808 d4be 150e 02bf 7039 2bbf
000002d0: a952 7c3e 0ec5 32bf bfce d73e 13a1 26bf
000002e0: e37c 1e3e 8719 32bf 062b f33e 24d6 bfbe
000002f0: 60b8 6dbe 95ec 383e 7610 833e 60ac 7c3e
00000300: 7afe 4f3e 2017 113e d1a2 18bf 642b ebbe
00000310: e30b 36bf 599c 50be 660e f1be 459f a2be
00000320: 63f2 d2be 68f9 71be 65b3 41bf 3a2f 8cbc
00000330: e463 b63e 35f3 893e a478 a3be e173 ccbe
00000340: 68eb fd3c b4ea 21bf 9bee cc3e caa4 223f
00000350: 9931 d83e c0a7 f2bd 9e78 913e 1b99 2fbf
00000360: 031b 963e 5286 04bf a280 06be 999e f8be
00000370: 2bac 29bf 2757 953e b2b7 18bf 14d8 a33e
00000380: edb8 dd3d 386f 19bf 00fd 113f 5981 f33d
00000390: 6b72 55bf 02fa 0e3f 894a 26bf 72c2 cb3e
000003a0: 39ea 253e 00dc f73e c574 0cbe f295 173e
000003b0: 10f2 07bf ff15 ba3d 508b 163f e150 66bd
000003c0: 5177 cf3d 5df2 67be 09be 093f adbf 2c3e
000003d0: 0909 973e ec20 b2be 1519 a83e d9b0 b43e
000003e0: 98a7 f33d 1401 32bd 6991 fc3e 55a7 ffbe
000003f0: 5bd9 01bf 2b17 9d3e 0932 e43e ea1c d93e

bias f4 [10]
-0.0107150525 -0.028936494 0.00924813 -0.015488336 0.054726314 -0.06789705 0.08814204 -0.07697759
0.015057117 0.023318846
00000000: 308e 2fbc 3a0c edbc 7885 173c cac2 7dbc
00000010: b328 603d 9c0d 8bbd d083 b43d 6da6 9dbd
00000020: 20b2 763c 2a07 bf3c
